test/models/nn_models/region_based_m1/shared_rocket/regions_2_bins.pt (torch, 404145 bytes, 85 tensors)

_rocket_kernels._rocket_kernels.weight f4 [101, 1, 1, 200]
000000 00 00 00 00 00 00 00 00 00 00 00 80 00 00 00 80
       0.0 0.0 -0.0 -0.0
000010 00 00 00 80 00 00 00 00 00 00 00 00 00 00 00 80
       -0.0 0.0 0.0 -0.0
000020 00 00 00 00 00 00 00 80 00 00 00 80 00 00 00 00
       0.0 -0.0 -0.0 0.0
000030 00 00 00 80 00 00 00 80 00 00 00 00 00 00 00 00
       -0.0 -0.0 0.0 0.0
000040 00 00 00 00 00 00 00 80 00 00 00 00 00 00 00 00
       0.0 -0.0 0.0 0.0
000050 00 00 00 80 00 00 00 80 00 00 00 80 00 00 00 00
       -0.0 -0.0 -0.0 0.0
000060 00 00 00 00 00 00 00 80 00 00 00 80 00 00 00 00
       0.0 -0.0 -0.0 0.0
000070 00 00 00 00 00 00 00 80 00 00 00 80 00 00 00 80
       0.0 -0.0 -0.0 -0.0
000080 00 00 00 00 00 00 00 80 00 00 00 80 00 00 00 00
       0.0 -0.0 -0.0 0.0
000090 00 00 00 80 00 00 00 80 00 00 00 80 00 00 00 80
       -0.0 -0.0 -0.0 -0.0
0000a0 00 00 00 00 00 00 00 00 00 00 00 00 00 00 00 80
       0.0 0.0 0.0 -0.0
0000b0 00 00 00 80 00 00 00 00 00 00 00 80 00 00 00 80
       -0.0 0.0 -0.0 -0.0
0000c0 00 00 00 80 00 00 00 80 00 00 00 80 00 00 00 80
       -0.0 -0.0 -0.0 -0.0
0000d0 00 00 00 80 00 00 00 80 00 00 00 80 00 00 00 00
       -0.0 -0.0 -0.0 0.0
0000e0 00 00 00 80 00 00 00 00 00 00 00 80 00 00 00 00
       -0.0 0.0 -0.0 0.0
0000f0 00 00 00 00 00 00 00 00 00 00 00 00 00 00 00 00
       0.0 0.0 0.0 0.0
000100 00 00 00 00 00 00 00 80 00 00 00 00 00 00 00 80
       0.0 -0.0 0.0 -0.0
000110 b5 3e ab bf 00 00 00 80 00 00 00 00 00 00 00 80
       -1.3378512 -0.0 0.0 -0.0
000120 00 00 00 00 00 00 00 80 00 00 00 00 00 00 00 80
       0.0 -0.0 0.0 -0.0
000130 38 7c 62 3f 00 00 00 00 00 00 00 00 00 00 00 00
       0.8847079 0.0 0.0 0.0
000140 00 00 00 00 00 00 00 00 00 00 00 00 00 00 00 80
       0.0 0.0 0.0 -0.0
000150 ac 59 a6 bf 00 00 00 80 00 00 00 00 00 00 00 00
       -1.2996116 -0.0 0.0 0.0
000160 00 00 00 80 00 00 00 80 00 00 00 80 00 00 00 00
       -0.0 -0.0 -0.0 0.0
000170 0a e2 57 bf 00 00 00 80 00 00 00 80 00 00 00 80
       -0.84329283 -0.0 -0.0 -0.0
000180 00 00 00 00 00 00 00 80 00 00 00 80 00 00 00 80
       0.0 -0.0 -0.0 -0.0
000190 c1 c7 c1 bc 00 00 00 00 00 00 00 80 00 00 00 00
       -0.02365482 0.0 -0.0 0.0
0001a0 00 00 00 00 00 00 00 00 00 00 00 00 00 00 00 00
       0.0 0.0 0.0 0.0
0001b0 81 57 d0 3f 00 00 00 00 00 00 00 80 00 00 00 00
       1.6276704 0.0 -0.0 0.0
0001c0 00 00 00 80 00 00 00 00 00 00 00 80 00 00 00 80
       -0.0 0.0 -0.0 -0.0
0001d0 00 55 66 bf 00 00 00 00 00 00 00 00 00 00 00 80
       -0.8997345 0.0 0.0 -0.0
0001e0 00 00 00 80 00 00 00 80 00 00 00 00 00 00 00 00
       -0.0 -0.0 0.0 0.0
0001f0 1e 2f 96 3d 00 00 00 00 00 00 00 80 00 00 00 80
       0.07333206 0.0 -0.0 -0.0
000200 00 00 00 80 00 00 00 00 00 00 00 80 00 00 00 00
       -0.0 0.0 -0.0 0.0
000210 f4 7a 24 3f 00 00 00 00 00 00 00 00 00 00 00 80
       0.6425011 0.0 0.0 -0.0
000220 00 00 00 00 00 00 00 00 00 00 00 00 00 00 00 80
       0.0 0.0 0.0 -0.0
000230 00 00 00 00 00 00 00 80 00 00 00 00 00 00 00 80
       0.0 -0.0 0.0 -0.0
000240 00 00 00 00 00 00 00 80 00 00 00 80 00 00 00 80
       0.0 -0.0 -0.0 -0.0
000250 00 00 00 80 00 00 00 80 00 00 00 00 00 00 00 00
       -0.0 -0.0 0.0 0.0
000260 00 00 00 80 00 00 00 80 00 00 00 00 00 00 00 00
       -0.0 -0.0 0.0 0.0
000270 00 00 00 00 00 00 00 00 00 00 00 80 00 00 00 80
       0.0 0.0 -0.0 -0.0
000280 00 00 00 00 00 00 00 80 00 00 00 80 00 00 00 80
       0.0 -0.0 -0.0 -0.0
000290 00 00 00 00 00 00 00 80 00 00 00 00 00 00 00 00
       0.0 -0.0 0.0 0.0
0002a0 00 00 00 00 00 00 00 00 00 00 00 00 00 00 00 00
       0.0 0.0 0.0 0.0
0002b0 00 00 00 80 00 00 00 80 00 00 00 80 00 00 00 80
       -0.0 -0.0 -0.0 -0.0
0002c0 00 00 00 80 00 00 00 80 00 00 00 80 00 00 00 00
       -0.0 -0.0 -0.0 0.0
0002d0 00 00 00 00 00 00 00 00 00 00 00 00 00 00 00 00
       0.0 0.0 0.0 0.0
0002e0 00 00 00 80 00 00 00 00 00 00 00 80 00 00 00 80
       -0.0 0.0 -0.0 -0.0
0002f0 00 00 00 80 00 00 00 00 00 00 00 00 00 00 00 00
       -0.0 0.0 0.0 0.0
000300 00 00 00 80 00 00 00 80 00 00 00 00 00 00 00 80
       -0.0 -0.0 0.0 -0.0
000310 00 00 00 80 00 00 00 00 00 00 00 80 00 00 00 80
       -0.0 0.0 -0.0 -0.0
000320 00 00 00 80 00 00 00 00 00 00 00 00 00 00 00 00
       -0.0 0.0 0.0 0.0
000330 00 00 00 80 00 00 00 80 00 00 00 80 00 00 00 00
       -0.0 -0.0 -0.0 0.0
000340 00 00 00 00 00 00 00 00 00 00 00 00 00 00 00 80
       0.0 0.0 0.0 -0.0
000350 00 00 00 80 00 00 00 00 00 00 00 00 00 00 00 80
       -0.0 0.0 0.0 -0.0
000360 00 00 00 80 00 00 00 80 00 00 00 00 00 00 00 00
       -0.0 -0.0 0.0 0.0
000370 00 00 00 00 00 00 00 80 00 00 00 80 00 00 00 00
       0.0 -0.0 -0.0 0.0
000380 00 00 00 80 00 00 00 00 00 00 00 00 00 00 00 80
       -0.0 0.0 0.0 -0.0
000390 00 00 00 00 00 00 00 00 00 00 00 80 00 00 00 80
       0.0 0.0 -0.0 -0.0
0003a0 00 00 00 80 00 00 00 00 00 00 00 80 00 00 00 00
       -0.0 0.0 -0.0 0.0
0003b0 00 00 00 00 00 00 00 80 00 00 00 00 00 00 00 00
       0.0 -0.0 0.0 0.0
0003c0 00 00 00 00 00 00 00 00 00 00 00 80 00 00 00 80
       0.0 0.0 -0.0 -0.0
0003d0 00 00 00 00 00 00 00 00 00 00 00 80 00 00 00 00
       0.0 0.0 -0.0 0.0
0003e0 00 00 00 80 00 00 00 00 00 00 00 80 00 00 00 00
       -0.0 0.0 -0.0 0.0
0003f0 00 00 00 00 00 00 00 00 00 00 00 80 00 00 00 80
       0.0 0.0 -0.0 -0.0

_rocket_kernels._rocket_kernels.bias f4 [101]
000000 90 3b 04 be 50 e0 ca 3e 8c 04 c1 be 4c 14 9c 3e
       -0.12913346 0.39624262 -0.37698781 0.30484235
000010 88 5e 39 3e 72 f4 5b 3f b0 e5 90 be 6c bb c4 be
       0.18102467 0.8591987 -0.28300238 -0.38424242
000020 b2 a7 0f 3f b8 5e ae be 40 db ee bd 96 55 41 3f
       0.5611526 -0.3405664 -0.11662912 0.7552122
000030 80 f3 f9 bc 0e 91 00 3f 96 16 72 bf 60 a9 22 be
       -0.030511618 0.50221336 -0.94565713 -0.15884924
000040 70 4d 5e be 20 8c 31 3e f4 bc ac 3e 00 39 de 3e
       -0.21709228 0.1733861 0.3373791 0.43402863
000050 26 9d 30 bf 78 f4 fc 3e b8 76 9b 3e f0 27 b7 3e
       -0.6898979 0.49405265 0.30364013 0.35772657
000060 50 79 f8 3e 44 c5 16 bf dc dd d5 be b0 ca 66 3e
       0.48530054 -0.58894753 -0.41770828 0.22538257
000070 8c 7e 3e 3f f0 e4 9f bd 10 bc c4 3d a8 4d b0 be
       0.74411845 -0.07807338 0.096061826 -0.34434247
000080 20 72 07 bd d6 f7 45 bf 8c 0f 81 3e 34 66 dd 3e
       -0.033067822 -0.7733129 0.25207174 0.43242037
000090 20 5c 21 bd 74 68 c3 be 80 98 68 3f 1e 57 6f 3f
       -0.039394498 -0.3816563 0.90857697 0.93492305
0000a0 c0 53 29 bd 1c 19 73 bf b8 32 41 3f a0 ed 27 3d
       -0.041339636 -0.9496019 0.75468016 0.0409981
0000b0 78 03 90 be c8 a1 7d be 08 25 74 bf 78 b0 18 bf
       -0.28127646 -0.24768746 -0.95369005 -0.5964427
0000c0 0c 51 56 3f b0 f6 70 be dc 27 88 be c4 dc aa be
       0.8371742 -0.23531604 -0.2659291 -0.33371556
0000d0 34 0f 07 bf 8a 22 42 3f 80 4f 9b 3d f0 99 be be
       -0.52757573 0.7583395 0.07583523 -0.3722682
0000e0 20 13 20 bf 26 31 29 bf d8 83 4e be 90 4f 23 3f
       -0.6252918 -0.6609062 -0.20167482 0.6379328
0000f0 c2 81 65 3f 34 ef b1 3e 12 e5 13 bf c8 b7 4b 3f
       0.8965112 0.3475281 -0.5777141 0.795773
000100 78 be cc be 6c 80 76 3f 70 5e 1d 3f bc f8 04 bf
       -0.39989066 0.96289706 0.61472225 -0.5194204
000110 a0 17 d6 3d 74 70 60 3f 40 e5 b0 bd b6 a1 51 3f
       0.10453725 0.8767159 -0.08637476 0.81887376
000120 56 35 70 bf 1c b0 b4 be 7e 51 7b 3f 60 62 92 3d
       -0.93831384 -0.3529061 0.9817122 0.0714767
000130 b0 68 b7 be 58 b0 a5 be ac a5 e8 3e c0 fa 03 bd
       -0.35822058 -0.32361102 0.45438898 -0.032221556
000140 70 e1 9e 3d 0e 8c 1b bf 68 28 ec be dc 85 e0 3e
       0.077578425 -0.6076058 -0.46124578 0.43852127
000150 24 49 96 be 10 12 db 3e 70 0f 91 3e 70 f5 f2 be
       -0.29352677 0.42787218 0.2833209 -0.4745288
000160 de 4e 43 3f 60 5c 65 bd a0 19 c0 3d d0 89 82 3d
       0.76292217 -0.0559963 0.093798876 0.06373942
000170 ae d2 52 bf 7e b1 31 3f 22 61 67 3f ec 07 12 3f
       -0.8235272 0.69411457 0.9038259 0.5704334
000180 98 8a 66 3e 66 89 03 bf 04 e3 4c 3f ee db 7b bf
       0.22513807 -0.5138153 0.800339 -0.9838246
000190 9c 2f be be
       -0.37145698

_bins.0._pooling_modules._pooling_module._fc_modules.0._fc_block._layers.0.weight f4 [1, 202]
000000 15 02 fe bc 56 e8 c9 bc 1d f5 6d 3c 88 d7 2b 3d
       -0.031006852 -0.02464692 0.014523772 0.041953593
000010 ac 77 68 3d 65 5b 4f bc cb d5 83 3d 48 1f 67 bd
       0.056754753 -0.0126560675 0.06437262 -0.056426316
000020 06 c0 4e bd 99 34 58 bd 02 9a 5c 3d 51 00 8e 3b
       -0.050476097 -0.052784536 0.05385781 0.004333534
000030 5b d9 97 bc 17 ca 10 3c f1 9e 71 bd 40 bc 9e 3c
       -0.01853626 0.0088372445 -0.05898947 0.019376874
000040 63 b3 1f 3d db ce 97 3d bc bb 4c 3d a1 96 9f 3c
       0.038989436 0.074125014 0.049983725 0.019481005
000050 3b 95 18 3d 46 c7 45 bd b1 8b b2 3c af 63 24 bd
       0.037251692 -0.048285745 0.021795126 -0.04013413
000060 8a 8a 83 3d f1 05 b7 3c d1 b5 f8 bc 9d 6a f4 bb
       0.064229086 0.0223417 -0.030360134 -0.0074589984
000070 c8 52 63 bd 87 28 11 bd f3 db 96 3c 04 39 49 3d
       -0.05549887 -0.03543904 0.018415427 0.04912664
000080 24 47 fc 3c 57 3f 69 3d 09 74 c0 b9 02 09 0d 3d
       0.030795641 0.05694517 -0.00036707547 0.03443242
000090 52 f5 2f bd 56 01 dd 3c 98 8f 53 bd 75 c2 72 bd
       -0.042958565 0.026978176 -0.051650614 -0.05926748
0000a0 f8 a9 84 3d 36 e1 3f bd 0e 2f 48 bd 5a 9e 54 3d
       0.064777315 -0.046845637 -0.048873 0.05190883
0000b0 8c c5 4a bd ec 53 40 bc 2b dc c0 3c 69 32 72 bd
       -0.0495048 -0.0117387585 0.023542484 -0.059130106
0000c0 de fe cc 3c 62 7c 80 bd aa 99 31 3d fd 23 9d 3c
       0.025023874 -0.06273724 0.043359436 0.0191822
0000d0 96 17 f5 bb 5e 81 9a 3d 37 10 8c 3c e8 c7 e4 3b
       -0.0074796183 0.07544206 0.017097576 0.0069818385
0000e0 8a 0b 85 3d 4b e7 f7 bc 64 83 19 bd b5 60 49 3c
       0.064963415 -0.030261656 -0.03747882 0.012291123
0000f0 13 af 0d 3d 6d 65 98 bb da 04 68 bd 80 17 99 bd
       0.034590792 -0.004650763 -0.05664525 -0.074751854
000100 a1 ac 2c bd c6 e4 cc 3c 70 09 e2 bc 80 92 39 bd
       -0.04215682 0.025011431 -0.02759239 -0.04530573
000110 68 8c 53 bd f6 da af 3c 62 d1 65 3c b9 c6 ef 3c
       -0.051647574 0.021466713 0.0140269715 0.029269563
000120 3d 57 a3 bb 56 30 89 3d 5a f8 2a 3d 40 98 5c bc
       -0.004984765 0.066986725 0.041740753 -0.013464034
000130 22 dc 92 3d a2 d3 7d 3c 60 00 1b 3d d1 b6 4a bd
       0.07170893 0.015492352 0.037842155 -0.049490754
000140 a8 01 08 bd c4 cd 99 3d 6d 4a 4b 3b 25 d1 59 bd
       -0.033204705 0.0750995 0.0031019703 -0.05317797
000150 50 74 26 bd 03 89 62 bc bc 13 81 3d 50 e5 8f 3c
       -0.040638268 -0.013826611 0.06302592 0.0175654
000160 81 ab 7c bc 95 5f 5d bd 2c 5b 2f bd 8e 67 55 3d
       -0.015421749 -0.054046232 -0.042811558 0.05210071
000170 0d 23 b1 3b ab d4 81 bd f3 c1 9b bc 38 2d 35 3c
       0.0054057897 -0.06339391 -0.01901338 0.011058144
000180 52 c8 ef bc b7 f4 9e bd 04 d4 2b bd 06 2a 88 3d
       -0.029270325 -0.077615194 -0.04195024 0.0664864
000190 d1 55 ab 3b eb fe 87 bc d3 1e 81 3d 9e 7a 40 3c
       0.005228736 -0.016601047 0.063047074 0.011747984
0001a0 74 cb 73 3d 22 43 00 bd 24 f5 23 bd 32 0e 6c bc
       0.0595202 -0.031314023 -0.040028706 -0.014407681
0001b0 52 d4 55 bd e7 48 ed bc 33 cd 9f 3c f7 7f 25 bd
       -0.052204438 -0.028965427 0.019507026 -0.04040524
0001c0 47 2c 55 bd 95 e6 e8 3c 2d 78 15 3d 14 f4 90 3d
       -0.05204418 0.028430263 0.03649156 0.07077804
0001d0 28 98 78 bc f1 cd 5c bd 39 3e 6b bd a4 80 be 3b
       -0.015172996 -0.05390734 -0.057432387 0.005813675
0001e0 61 4c 4b bd e2 79 31 3d 38 c5 37 bd d9 37 0e bd
       -0.049633387 0.043329127 -0.044865817 -0.03472123
0001f0 61 e8 24 bc fb 94 f0 3a f5 5d 17 3c 32 03 93 3c
       -0.010065169 0.0018354947 0.00923871 0.01794586
000200 86 9a 29 bd 6c 9d 94 bc 0f 1b ba 3c 0b de 4a bd
       -0.04140713 -0.01814147 0.02271798 -0.049528163
000210 9b b6 88 3d bc 9b 88 bd f8 b7 3c bd aa ea 92 3d
       0.06675454 -0.06670329 -0.046073884 0.07173665
000220 81 29 1c bd 70 6e 6c 3d 03 08 17 bc 28 2c df bb
       -0.03812552 0.05772251 -0.009218219 -0.0068106838
000230 34 be 32 bc 2f 2e 81 bd ba 51 1d bd 6b 71 71 bb
       -0.010909606 -0.06307637 -0.03840802 -0.0036841284
000240 16 96 01 bd 70 9b 87 3c 80 79 75 3d 35 73 51 bd
       -0.031637274 0.01655361 0.059930325 -0.05113526
000250 b2 4c 23 3c ab 7d 90 3c 8d 25 49 3d fa f6 e3 ba
       0.009967016 0.017638048 0.049108077 -0.001739233
000260 5b 93 79 bb 63 f1 7a 3d 36 19 21 3d 07 e2 cc 3c
       -0.0038082215 0.06126536 0.039330684 0.025010122
000270 92 00 a2 3b 86 30 77 bc 68 ef 76 bd 32 ff 9b 3d
       0.0049439156 -0.0150872525 -0.06028691 0.07617034
000280 ee 94 93 3b 02 2f 42 bd 76 6a 63 3c e1 75 89 3c
       0.004503838 -0.04740811 0.013880363 0.016779842
000290 de c6 0d bd 94 66 7b 3d a1 0a 5a 3d fd e7 03 3c
       -0.034613483 0.061377123 0.053232793 0.008050916
0002a0 fe 4a 81 bd b9 bb 7b 3d 29 d0 7f bd 17 90 35 bd
       -0.06313132 0.061458323 -0.062454376 -0.044326868
0002b0 53 32 10 3d 83 23 28 bd 7f 0f 30 bc da 68 82 bd
       0.035204243 -0.04104949 -0.010745882 -0.06367655
0002c0 33 14 e9 bb ad 05 3d 3d 6f 48 94 bd dd 40 a3 3c
       -0.0071130036 0.04614799 -0.07240378 0.01992839
0002d0 70 ac 09 bc 11 57 28 bd 5c ce 8a bb 40 0f 47 3d
       -0.008402929 -0.041098658 -0.0042360257 0.048598528
0002e0 6a 8a 79 bd e5 e7 56 bd 70 2c 46 3d 00 13 df b8
       -0.060923018 -0.052467246 0.048382223 -0.00010637008
0002f0 8d 0d 6f 3c 06 a1 6d 3d 0b 39 59 bd 14 47 50 bd
       0.014590633 0.058014892 -0.053032916 -0.050849035
000300 4f b2 02 3c c3 5d 86 3c 15 e9 85 3d e4 ca 48 3d
       0.007977082 0.016402131 0.065385975 0.049021617
000310 33 44 9a bc 5d 8e 76 bd 71 b2 cd 3c ed 43 1b 3d
       -0.018831348 -0.060194362 0.025109502 0.037906576
000320 f0 4c 27 3c 1d 31 24 bd
       0.010211214 -0.0400859

_bins.0._pooling_modules._pooling_module._fc_modules.1._fc_block._layers.0.weight f4 [1, 202]
000000 bb 5c 4a 3d 21 c9 b8 bc 9a 97 38 3d b8 66 e6 3c
       0.04940484 -0.022556843 0.045066454 0.028125152
000010 08 05 93 bc 5e 6e 63 bd ea 5c 5e bd 40 a3 d7 3c
       -0.017946735 -0.055525176 -0.05428783 0.02632296
000020 c1 72 82 3d 57 d0 68 bd 83 9f 6b 3d a3 b5 78 3d
       0.06369544 -0.056839313 0.05752517 0.060720097
000030 ec 48 26 bd fc c5 80 bd 21 83 7e bd 76 f9 a5 3c
       -0.040596887 -0.062877625 -0.062136773 0.020260554
000040 00 25 62 3d 33 45 17 bb 5a 0d 99 3b b8 14 b7 bc
       0.055211067 -0.0023082017 0.004670781 -0.022348747
000050 03 ab 92 bc ff fa 15 bd de 2b 0a bd 22 01 95 bd
       -0.01790381 -0.03661632 -0.03373324 -0.07275607
000060 cc 93 e1 3c 17 17 be 3c c8 f6 1d bd de 8d 12 bd
       0.027536295 0.02320437 -0.038565427 -0.035779826
000070 72 65 a2 3c 31 73 33 3d 7c d4 da bc 9c 0b 7f 3d
       0.019823764 0.043811027 -0.026712649 0.06226693
000080 d1 52 73 3d 29 54 85 3c c7 6c 85 bd c2 28 d6 3c
       0.05940515 0.016275482 -0.06514888 0.026142482
000090 fb 00 dc 3c 7f fb a1 bc a3 bb 1c 3c ac 75 60 3c
       0.026855936 -0.019773243 0.00956622 0.01369993
0000a0 53 e4 6c 3d 91 40 65 bd fc 57 34 3d 8a f1 e9 bc
       0.057834934 -0.05596978 0.04402922 -0.028557558
0000b0 24 a0 51 bd f3 0b ee bc 61 42 a0 3b ac 7d 2e 3d
       -0.051178113 -0.029058432 0.0048907255 0.04260032
0000c0 c3 ac e0 bc d9 5e 85 bd b3 38 7e bd cd 5f 58 3d
       -0.02742613 -0.065122314 -0.06206579 0.052825738
0000d0 1c eb 8b bd b5 63 84 bd dd c3 ef bb ae 9d b5 bb
       -0.06831953 -0.0646433 -0.00731705 -0.0055424785
0000e0 c6 b6 1d 3d 4a 06 bd 3b a0 e5 bf 3c f6 91 0c 3b
       0.038504384 0.005768572 0.023424923 0.0021449304
0000f0 63 a1 7e 3c b3 a8 3f bc 90 4f 77 bd 47 8c 6b bd
       0.015541407 -0.011697936 -0.06037861 -0.057506826
000100 2d 1e 86 3d e8 45 7a 3d 27 5e 5b bd 60 89 bf bc
       0.06548724 0.061101824 -0.053556588 -0.023380935
000110 70 eb d4 3c 65 2d 48 bc 69 d6 10 bd 17 74 f4 3c
       0.025991172 -0.012217854 -0.035360727 0.029840512
000120 f7 38 8a 3d 22 76 56 bd 2d 49 03 bd e8 19 27 bd
       0.067491464 -0.052358754 -0.032052208 -0.04079619
000130 9c 6b 1a bc 62 f7 0c bd 1f 43 72 bd 8d 14 8c 3d
       -0.00942507 -0.03441561 -0.059146043 0.06839857
000140 d2 b3 2d 3d d6 3a c4 3c dd c3 18 bc 79 45 1b 3d
       0.04240782 0.023953836 -0.009324041 0.03790805
000150 20 36 3b 3d 6c 99 5c bc 30 84 7f 3d ef c9 86 3d
       0.045705914 -0.013464313 0.062381923 0.065814845
000160 19 cd 08 3d 76 af bd bc 55 87 31 3d 1e cb b1 bc
       0.03339872 -0.023154955 0.043341953 -0.0217033
000170 0d ea 7b 3d 1e f4 86 bd f3 58 55 3b 3f 8c d3 3c
       0.061502505 -0.065895304 0.0032554239 0.02582371
000180 6f 94 03 3d 56 f4 22 3d 16 dd 86 bc eb c1 da 3c
       0.03212398 0.0397838 -0.016462844 0.026703795
000190 94 84 3f 3d 11 92 38 3d b6 ab 91 bd fe ae 2e bc
       0.046757296 0.045061175 -0.071128294 -0.010661839
0001a0 6d bc 3b bd 88 d9 7a 3c 2f 8d 25 bd eb bb 38 bd
       -0.045833994 0.015310653 -0.040417846 -0.045101088
0001b0 bf 01 3b 3d 06 00 5d bd 0e 2c 09 3c 3b 8a e1 bc
       0.045655962 -0.0539551 0.00837232 -0.027531734
0001c0 fc c1 57 3d a7 10 25 bc f5 9c 2b 3b 52 72 54 bc
       0.052675232 -0.010074771 0.0026186083 -0.012966709
0001d0 62 05 1e 3d 70 e8 7c 3d f4 f8 75 3b 94 2e c8 3c
       0.038579352 0.061745107 0.003753242 0.024436273
0001e0 02 2c 82 3c 99 a0 8f 3d 1a a1 42 3d 5d 53 a0 bc
       0.015890125 0.070130534 0.04751692 -0.019571
0001f0 b3 d9 ff bc 63 53 0b bd 04 36 88 3d c9 ef 72 3d
       -0.031231737 -0.03401507 0.06650928 0.05931071
000200 29 da a7 bc 5c 52 ee bb b3 4d 8d bd 78 eb 3c bd
       -0.020489769 -0.0072730016 -0.068995856 -0.046122998
000210 9f 3a 6d 3c 29 90 63 bd b7 84 2f 3d 74 78 4f 3c
       0.014479308 -0.055557404 0.042851176 0.012662996
000220 a3 fe a3 bb 3e bb 57 bd 87 6d 9c 3d 86 ee c2 3a
       -0.0050047203 -0.052668802 0.07638078 0.0014872111
000230 ed 73 a9 3c ff 87 36 bc 3f ab 32 3d 67 3e 68 3c
       0.02068516 -0.011140822 0.043620344 0.014175034
000240 44 8c d3 bc b5 8c 98 3c ec b5 7a 3d 76 9e 51 3d
       -0.02582372 0.018621782 0.06120865 0.05117651
000250 d4 b8 39 bd cc 09 35 3d 60 3d ac 3b 7b 79 3c 3c
       -0.04534228 0.044198796 0.00525634 0.011503573
000260 86 e9 b8 bc ae 5b 35 bd 5c ac 69 bd 19 bf 0c 3d
       -0.02257229 -0.044276886 -0.05704914 0.034361932
000270 bd 93 c7 3a 14 4c 81 3d b4 91 e2 bc 9c e0 52 bd
       0.0015226525 0.06313339 -0.027657367 -0.051483735
000280 6a 80 31 3d 6e 7a 1f bd 2c 78 97 bc e0 96 c4 bc
       0.043335356 -0.038935117 -0.01848992 -0.023997724
000290 f5 cc 73 3d 4a 63 6e 3a ce 30 5e 3d 2e 92 91 3d
       0.059521634 0.0009093775 0.054245763 0.0710796
0002a0 09 84 19 3d 3c b5 55 bd a9 ec 8f 3c ee dc c9 ba
       0.037479434 -0.05217479 0.017568903 -0.0015400925
0002b0 c9 19 3f bc ea ab 5a 3d 12 38 4d bc 37 80 3a 3d
       -0.0116638625 0.053386606 -0.012525575 0.04553243
0002c0 cc 8e 2a bd 78 f5 42 3d 34 4e 8d 3d 64 42 fb bc
       -0.041640088 0.04759738 0.06899682 -0.030671306
0002d0 19 e5 27 bc f6 62 80 3d 97 36 b2 ba 68 77 e8 3c
       -0.010247492 0.06268875 -0.0013596591 0.02837725
0002e0 c7 29 4c bd fe fb 4d bd 99 d5 2f 3b 53 9c 94 bd
       -0.04984453 -0.050289147 0.0026830195 -0.07256379
0002f0 01 be 3f bb 24 b2 22 3d e6 b1 fd bc 39 46 47 bd
       -0.0029257538 0.03972067 -0.030968618 -0.048650954
000300 28 98 4b 3d 4f 55 a7 3c ac 00 8d 3d f8 e6 05 bd
       0.049705654 0.02042642 0.06884894 -0.032690972
000310 02 dc 75 3d b3 48 2a 3d 0a e1 e9 ba ea 22 15 3d
       0.06002427 0.041573238 -0.0017843556 0.03641025
000320 83 a7 82 bd 39 8a 20 3d
       -0.063796066 0.03919432

_bins.0._pooling_modules._pooling_module._fc_modules.2._fc_block._layers.0.weight f4 [1, 202]
000000 9f 6c 83 3d dc 8e e4 bc 2a d6 3a 3d e3 18 b3 3c
       0.06417202 -0.027900152 0.0456144 0.021862453
000010 b2 86 13 3d 6e e2 7f 3d 58 d7 17 bd 45 36 33 3c
       0.036017127 0.0624718 -0.037070602 0.010938232
000020 11 f8 2e 3d fa 40 1e 3d 4d 7f 0a 3d b4 0b d1 bc
       0.042717043 0.038636185 0.03381281 -0.025518276
000030 23 1d db 3a 08 27 8c 3d 87 e6 4a 3a 7e 0b 53 3d
       0.0016717057 0.06843382 0.000774004 0.05152463
000040 0f a2 26 bd 1e 20 36 3d de 07 3b bd 66 3c a3 3c
       -0.040681895 0.044464223 -0.0456618 0.019926261
000050 96 cd b6 3b 27 a1 82 3d cb 68 f5 3b 91 e0 a1 bb
       0.005578707 0.063783936 0.007489299 -0.0049401005
000060 2e 71 46 3d cd 55 f4 3c 96 78 1f 3c da 0f 3d bd
       0.04844778 0.02982607 0.00973334 -0.046157695
000070 e4 21 83 3c ce 25 77 bd 1d b0 8e bd 63 ec 9d bc
       0.016007371 -0.060338788 -0.06967185 -0.019277757
000080 6a 4f a5 3c dc 19 8d 3c 65 99 dc bc be 71 10 bd
       0.02017947 0.017224245 -0.026928613 -0.035264723
000090 d4 a2 10 3d 90 fb 1b 3d 31 57 8a 3d 22 96 27 bd
       0.035311535 0.038081706 0.06754912 -0.040914662
0000a0 7c d5 1a bd 10 51 db bc f8 29 87 3d 22 08 55 bc
       -0.03780125 -0.026772052 0.06599802 -0.013002427
0000b0 20 e6 54 3d 46 50 f2 3c 79 40 4a bd da 76 3a bd
       0.051977277 0.029579293 -0.049377892 -0.045523502
0000c0 93 e8 e6 bc 90 ac 4a 3d d0 2b ce 3b 5b fd 20 3d
       -0.028187072 0.049480975 0.006291844 0.03930412
0000d0 e2 e8 b0 3c 1d 30 42 bd 1f 2e 1d 3d 87 0a 2d 3c
       0.021595422 -0.047409166 0.038374063 0.010561592
0000e0 3c fc 24 bd 0c fe af 3c df 80 03 bd 76 90 1d bc
       -0.040279612 0.021483444 -0.032105323 -0.009616962
0000f0 39 bd a3 bb 80 bd cf bc 0e 9c 63 3d 40 39 ed 3b
       -0.0049969223 -0.025358915 0.055568747 0.0072394907
000100 35 46 6c 3d 70 64 9d 3d 27 43 82 3c b1 8c 87 3d
       0.057684142 0.076851726 0.015901161 0.06618632
000110 be c1 74 3c 91 ed b8 3c 53 61 85 3c 33 ff 8c 3d
       0.01493877 0.022574218 0.01628176 0.06884613
000120 00 d5 48 3d c4 52 83 bd a9 35 be bc 68 a9 17 bd
       0.049031258 -0.06412271 -0.023218947 -0.037026793
000130 62 0a 76 3c 3f 67 2b 3c b8 d1 b1 bc c4 6e 90 3d
       0.015017124 0.0104616275 -0.021706447 0.07052377
000140 e1 90 61 3c 1b 23 39 bd 7c b8 c2 3c 65 17 3b bd
       0.013767452 -0.045199495 0.02376961 -0.045676608
000150 9a ff 02 bd 68 c7 8f bc 16 27 07 bd ed ff 82 3d
       -0.031982042 -0.017551139 -0.03299626 0.0639647
000160 74 d1 61 bd cd c5 bd 3c c4 93 03 bd a5 48 19 3d
       -0.05513139 0.023165608 -0.032123342 0.037422795
000170 c5 ed 6f 3d c9 cc 8c bc 23 02 01 bd 30 2e 89 3d
       0.058576364 -0.017187493 -0.03149618 0.06698263
000180 38 7e 3c bd 03 26 33 bd f1 90 a2 3c d4 53 9b 3d
       -0.04601881 -0.043737423 0.019844504 0.07584348
000190 50 28 8c bd 62 e3 15 bd be cc 27 bd 4c 3a 2b bd
       -0.068436265 -0.036593802 -0.04096674 -0.041803643
0001a0 3b 9e e4 3c bf 5e 45 3d f7 d6 81 3d 92 02 e9 bb
       0.027907481 0.04818606 0.063398294 -0.007110902
0001b0 cf fa 06 bd 0c 2f 8c bd ff 69 21 3c 77 37 5a 3c
       -0.032954033 -0.06844911 0.009851932 0.013318888
0001c0 cd 04 82 bd e2 fc 5b 3c 24 38 33 3d f4 ff 81 bd
       -0.06348572 0.013426991 0.04375471 -0.06347647
0001d0 80 ac 98 bc 9d 3d ff bb bc 5c 6d bc 04 27 81 3c
       -0.018636942 -0.0077893273 -0.014487442 0.015765674
0001e0 3b ef 74 3d a5 d5 8d bc b0 82 53 3c 5f e3 41 3d
       0.05979846 -0.017313788 0.012909576 0.04733598
0001f0 08 53 4d 3c 60 79 25 bd 31 0c 39 bd 08 90 8e bc
       0.012532003 -0.040398955 -0.045177642 -0.017402664
000200 4a 0a d6 3b 4a d6 46 bd 73 f9 1c bd fb 53 ff bb
       0.0065319883 -0.048544206 -0.03832383 -0.0077919937
000210 dc 5a 9d bc d0 05 8c 3d c1 2b 0c 3c a6 6b 8a bb
       -0.019208364 0.06837046 0.008555354 -0.0042242585
000220 f1 30 70 3d be 78 7f 3b 2c 21 57 bc 95 ff 9b 3d
       0.058640424 0.003898188 -0.013130467 0.07617108
000230 65 85 06 bd 38 92 b5 3c 36 ab b7 bc fb 44 2e 3d
       -0.03284206 0.02216445 -0.022420507 0.042546254
000240 68 fe 4f 3d 01 96 8f bc c9 00 3b 3d 79 66 97 bd
       0.05077973 -0.017527582 0.045655046 -0.07392592
000250 b1 11 1a bc 30 b1 81 bd fc 45 bd bc 04 ed 0c 3c
       -0.009403632 -0.06332624 -0.02310466 0.008601431
000260 f4 b7 61 3d 53 f8 94 3d fe 9c c3 bc e3 1d 87 3c
       0.055107072 0.072739266 -0.02387857 0.016493743
000270 9e cd 03 bd 87 81 0a 3d 0d eb 47 3c 3f 97 87 bc
       -0.032178514 0.033814933 0.012202037 -0.016551612
000280 97 55 68 3d 3c d5 7b bc 61 5a 84 3d a7 ab ee bc
       0.05672225 -0.015370663 0.06462551 -0.029134585
000290 d0 0a 69 3d 3b 10 93 3c 83 ac 8b bd d7 32 20 bd
       0.056895077 0.017952075 -0.068200134 -0.039110985
0002a0 6b 3c 17 bd 9c 52 73 bc 7a a2 e7 bc f1 8e 5b 3d
       -0.036922853 -0.014851239 -0.028275717 0.053603116
0002b0 81 f0 01 3d 2e 1a 58 3c 29 08 72 3d 04 fb 86 bb
       0.031723503 0.0131898355 0.059089813 -0.004119279
0002c0 ca bd 71 3c 14 79 20 bd 02 0c 83 3d f8 80 01 bd
       0.014754722 -0.03917797 0.06398775 -0.031617135
0002d0 0b 46 80 3c a3 1f 99 3c e7 82 28 bd c8 66 84 bb
       0.0156584 0.018691843 -0.041140463 -0.004040573
0002e0 73 d8 db 3c 26 6b 80 bd 93 75 48 3d 40 ea 52 3c
       0.02683661 -0.06270437 0.048940253 0.012873232
0002f0 50 2c 8a 3d 2c b0 c9 3c b7 ed 0c 3d 94 ca 86 bd
       0.06746733 0.024620138 0.03440639 -0.065816075
000300 ee a5 57 3d 6a 94 74 3d ca 08 73 3d 9b 01 74 bd
       0.052648477 0.05971185 0.059334554 -0.059571844
000310 6b c5 07 bd 09 e8 11 bd 34 6a 78 bd 95 2c b3 3c
       -0.033147257 -0.035621677 -0.06064816 0.021871844
000320 27 3e 5e bd df d3 cc 3c
       -0.05425849 0.025003372

_bins.0._pooling_modules._pooling_module._fc_modules.3._fc_block._layers.0.weight f4 [1, 202]
000000 cf a1 87 3d e0 13 fd bc 17 d2 27 bd 26 e1 30 3d
       0.066226594 -0.030893266 -0.04097184 0.04318347
000010 20 74 6b bd 20 e4 a6 3c c5 46 be bc 21 89 4d bc
       -0.057483792 0.02037245 -0.023227105 -0.012544901
000020 02 e3 92 3d 96 b1 39 bd 1e f3 dc 3b a5 52 9c 3d
       0.071722046 -0.045335375 0.006742849 0.07632951
000030 22 d8 0a bd fd f2 24 bd 19 6e dd bc 70 f3 23 3b
       -0.033897527 -0.040270794 -0.027030038 0.0025016926
000040 73 4c a9 3c 84 bd 33 3c ce b0 d4 b9 45 6e ef 3c
       0.020666337 0.010970477 -0.0004056752 0.029227385
000050 eb 9e 87 3d 03 b2 56 3c 4b 5a 0e 3d 31 03 27 3d
       0.06622108 0.013103965 0.03475408 0.040774528
000060 23 34 9a 3d e7 e6 bb bc a1 1f 3c bc 66 d9 9c bd
       0.075294755 -0.022937251 -0.01148215 -0.07658653
000070 56 0d b9 bb 71 7b 16 bd 9b 02 71 3c 91 c7 1d 3d
       -0.0056473417 -0.036738817 0.014710094 0.0385204
000080 e2 4b fc 3c 5c 36 7e bd 42 9d 23 3d db 49 29 3d
       0.030797902 -0.06206356 0.039944895 0.0413302
000090 9d d8 a9 bc 27 6d 19 bd 31 67 82 3d df 57 f3 bc
       -0.020733172 -0.03745761 0.063673384 -0.029704986
0000a0 f5 62 ec 3b 0a cb 29 3d 2a d8 b4 3b 55 4a 42 3c
       0.007213945 0.0414534 0.005518933 0.011858542
0000b0 34 d9 5c bc 61 f1 11 bd 08 df 0f bd 19 7e 4e bb
       -0.01347952 -0.035630587 -0.03512481 -0.0031508266
0000c0 d9 ff 83 bd a5 cf 4b bc 9b f2 14 bd 78 94 50 bd
       -0.064452834 -0.012439643 -0.03636418 -0.05092284
0000d0 99 51 75 bd 80 4d d0 3c ba eb 6c bd 4c a9 41 3d
       -0.05989227 0.02542758 -0.057841994 0.047280595
0000e0 e8 98 56 bd 5b 64 e2 bc 5c b4 34 3d 0e d2 3c bc
       -0.052391917 -0.027635744 0.044117317 -0.01152469
0000f0 b7 fb c7 bc 0b 2a 2c 3b ce 0c 01 bd ad 01 f9 bb
       -0.02441202 0.0026270177 -0.031506352 -0.0075990767
000100 3f 5f 86 bd cd 10 a5 bc 87 8b 3c bd 82 74 8b bd
       -0.065611355 -0.020149613 -0.0460315 -0.068093315
000110 62 47 41 3d 2f 01 da bb ae 8a 0e 3d dc 6b 93 bd
       0.047187217 -0.006652973 0.034800224 -0.07198307
000120 25 9c 34 3c 60 c8 d2 bc 77 d8 28 bd ac 54 24 3d
       0.011023556 -0.025730312 -0.041222062 0.040119812
000130 cf 68 f5 bc 43 64 5f bd 38 db 8d bd 04 57 66 bd
       -0.029957203 -0.054538976 -0.06926578 -0.05623533
000140 df 35 91 bd 15 71 85 3d 40 a1 7e 3d 8d 33 04 bd
       -0.07090353 0.06515709 0.0621655 -0.032275725
000150 40 09 42 bd 79 ae 6c ba 21 9f 7a 3d a5 13 98 bc
       -0.047372103 -0.0009028684 0.061186913 -0.018564055
000160 3a 4e 0f 3d 38 bc 68 bc 7d 98 36 bd 8a d4 6b 3d
       0.034986712 -0.014205031 -0.044579018 0.05757574
000170 6f 96 8d bd 51 35 82 3d ad 42 aa bc c8 56 20 3d
       -0.069134586 0.063578255 -0.020783747 0.03914526
000180 ca c7 3e 3d 11 a2 46 bc 94 af a6 3c 99 45 89 bd
       0.046577252 -0.012123601 0.020347394 -0.06702728
000190 85 69 1c 3c 7a 4b 1a 3d d8 1e 48 bd 97 56 e0 3c
       0.009546642 0.037669636 -0.04885754 0.02738504
0001a0 8e 2c 08 bc d6 a2 44 3d 6e 41 3d bd 74 34 12 3d
       -0.008311404 0.048006855 -0.046204977 0.035694554
0001b0 16 48 ab 3c 4c 79 69 3d bb d9 14 3c 85 c2 63 3b
       0.020908397 0.057000443 0.009085114 0.0034753394
0001c0 26 34 77 3d 12 ef 3f bb a4 7c 20 3c de 2b 85 bd
       0.060352467 -0.0029286784 0.009795342 -0.065025076
0001d0 2a 2d 1b 3d f8 0b 91 3d d2 01 13 3d c9 bc aa bc
       0.03788487 0.07082361 0.035890408 -0.020841973
0001e0 c9 9b 8c bd 59 70 ac bc 02 70 c0 3c 0f 19 5b 3d
       -0.06865651 -0.021049665 0.02349091 0.053490695
0001f0 df a6 3c 3d ad 6d 9c 3d 7d cf 7f 3d ef 33 5f 3c
       0.04605758 0.076381065 0.062453736 0.013623222
000200 98 9e 3d bd f3 40 29 3d ef de af bb 64 61 d5 3c
       -0.046293825 0.041321706 -0.005367152 0.026047416
000210 4a 39 1b bd 42 a7 7a bd 5b 47 0d bd 7b f2 39 3d
       -0.037896432 -0.061194666 -0.034491878 0.045397263
000220 6e 08 7d 3d 99 b8 a1 bb e5 f9 2c 3a 4c ef 96 3d
       0.061775617 -0.004935336 0.00065985165 0.07369861
000230 01 63 08 bd c5 25 5c bd ac 39 23 3d f5 fe fe 3c
       -0.033297542 -0.053746957 0.039849922 0.031127432
000240 2f 67 61 bd 1e 8d 9b bc ab ca 74 ba 92 6e 40 3c
       -0.055030044 -0.018988188 -0.0009338061 0.011745112
000250 15 10 3a bd 7b 14 7c bd 9b 93 95 bb d5 94 12 3d
       -0.045425493 -0.06154297 -0.004564715 0.03578647
000260 8c 2a 8f bd fc e3 42 bc a8 14 fa bc a5 83 69 bd
       -0.06990537 -0.011895176 -0.030527428 -0.05701031
000270 9e 5e 64 3d 3d 9b 68 bc fc 31 15 3c 72 0d 3c 3d
       0.055754296 -0.014197168 0.0091061555 0.04591126
000280 2f cd d3 bc 12 9e b9 3c 23 17 3b 3d df cc 76 bd
       -0.025854675 0.022658382 0.04567636 -0.060253974
000290 84 fd f9 3c c6 b3 ce 3c 1e 31 58 3d d4 15 2a 3d
       0.030516393 0.025232207 0.052781217 0.041524723
0002a0 3f c7 93 3c f5 4d 35 bc 55 40 b8 3c df 8c 08 bd
       0.018039344 -0.01106595 0.022491613 -0.03333747
0002b0 80 a6 47 3c 38 1e 91 bd 5a 3e 88 bd f4 2e 0a 3d
       0.012185693 -0.07085842 -0.066525176 0.033736184
0002c0 a9 70 ac bb 02 20 a1 bc 6c 61 80 bd ee 10 1f 3d
       -0.0052624536 -0.019668583 -0.06268582 0.038834505
0002d0 88 0f 9d 3d 83 dd 17 3b cb c2 0c bb b1 7f 07 bd
       0.07668978 0.0023172803 -0.002147841 -0.03308076
0002e0 44 8f 1e bd aa 44 29 bd e2 1f 0f 3d 3b 8e 27 3d
       -0.038710847 -0.04132525 0.034942515 0.040907126
0002f0 a7 17 0a 3d c4 98 f2 3c b3 e8 16 3d 8b c5 49 bd
       0.033713963 0.02961386 0.036843013 -0.049260657
000300 4d 49 2d bc b4 97 62 3d a7 ce 44 3d ca d7 33 bd
       -0.010576558 0.055320457 0.04804864 -0.043906964
000310 73 e7 e0 3c a5 66 d5 bc 13 fb d7 b9 23 2d 3b bd
       0.027454114 -0.026049921 -0.0004119506 -0.045697343
000320 a1 a9 62 3d c7 b6 10 3d
       0.055337552 0.03533056

_bins.0._pooling_modules._pooling_module._fc_modules.4._fc_block._layers.0.weight f4 [1, 202]
000000 c3 b8 1d 3d a9 59 55 bd b6 b0 8e bd 8f 1b c3 bc
       0.03850628 -0.05208746 -0.06967299 -0.023816852
000010 95 c6 4d bc 12 fb 3b bd e4 72 82 bb 91 f2 02 3c
       -0.012559553 -0.045893736 -0.003980981 0.007992403
000020 b5 ed e3 bc be 05 c0 3c 46 cf 24 3d ad e8 77 3d
       -0.027823308 0.023440238 0.040236734 0.06052463
000030 86 98 12 3c a0 0c 3c bd 13 99 67 3c 65 5f b0 3c
       0.008947497 -0.045910478 0.014135617 0.021529863
000040 fe df 80 bd 3b 39 87 bc 25 4b e1 3b 46 92 04 3c
       -0.06292723 -0.016506782 0.006875413 0.008091515
000050 ca 75 96 bc bb 84 3e bd ea 34 e9 bc 70 22 0c 3c
       -0.018366713 -0.0465133 -0.028467614 0.008553132
000060 d1 92 2d bc 5b 9a df bc bd f3 d4 bc 7a bd d8 bc
       -0.010594086 -0.027295282 -0.02599513 -0.026457537
000070 60 0c 74 3c aa 0a 38 bd a1 83 20 bd b1 69 5e 3d
       0.014895529 -0.044932045 -0.03918803 0.054300014
000080 2d 54 a4 bc 55 12 b1 3c b0 83 62 bd 2c e2 8a 3d
       -0.02005967 0.021615187 -0.05530137 0.0678142
000090 37 b2 75 bc 2d 92 f8 bc 4d a6 85 3d 9c 72 11 3d
       -0.014996103 -0.03034314 0.0652586 0.03550969
0000a0 d4 24 ca 3c 33 ac 40 bd 8e 9c b7 3c 54 d3 ca 3c
       0.024675764 -0.047039222 0.022413518 0.024758972
0000b0 9c b4 c2 bc 46 ec 2f bd 01 c5 51 bd dc 19 c1 bc
       -0.023767762 -0.042949937 -0.05121327 -0.023571901
0000c0 ba c7 4f bd 22 0c df 3b 0e 8e d4 3b 4a 80 a4 3c
       -0.050727583 0.0068068663 0.006486661 0.020080704
0000d0 79 1e 48 3d 3f a1 92 bd 60 e8 36 b9 8d 4a 9b 3c
       0.048857186 -0.071596615 -0.00017443439 0.018956447
0000e0 b2 5f 69 3d 03 a6 6c bd b5 31 bc bc 45 b6 20 bd
       0.056976028 -0.05777551 -0.02297292 -0.039236326
0000f0 3e 41 85 3d 71 5a 17 bd f5 67 56 3d 4a ad e1 3c
       0.065065846 -0.036951486 0.052345235 0.027548451
000100 81 43 fc bc 8f 61 5e bc f2 6c 9d 3d a2 01 29 3c
       -0.030793907 -0.0135730645 0.07686795 0.010315331
000110 ac 18 e4 3c bd a0 61 ba 26 d7 1f bd bf c9 98 bd
       0.027843796 -0.0008607021 -0.03902354 -0.07460355
000120 80 77 9f 3d 5f 70 b5 3c 8c 5c 95 bc e9 57 80 3c
       0.07786465 0.02214831 -0.018232606 0.015666919
000130 2f 7e b6 3c b2 d0 c0 3c a8 b7 d0 bc a6 79 05 bd
       0.022276966 0.023537014 -0.0254782 -0.032586716
000140 76 80 27 bd 43 45 df 3c 3f 4b 9c 3d 8f f2 4d 3d
       -0.040893994 0.027254706 0.076315396 0.05028015
000150 c9 6d 50 3d f6 cf fc bc af e7 56 3d aa 4a 3c bd
       0.05088595 -0.030860882 0.052467044 -0.045969643
000160 18 05 12 3d 0c 33 a4 bc 27 93 16 3d e9 bf a2 3c
       0.03564939 -0.020043872 0.03676143 0.0198669
000170 28 79 38 3d 21 7e d5 bc 01 1b 4f 3d bf fb cc 3c
       0.04503742 -0.02606112 0.050562862 0.025022386
000180 21 47 36 ba 43 fc 91 bc a8 50 57 3d 29 c6 82 bd
       -0.0006953348 -0.017820483 0.052567154 -0.06385452
000190 f2 72 28 3d 65 5a ff bc 9d 17 4b 3d 31 03 71 3d
       0.041125245 -0.031171033 0.049583066 0.058840934
0001a0 1b b1 84 3d cf cc 3f 3d 34 ce 08 bd 2b de 45 3c
       0.06479093 0.04682618 -0.033399776 0.012076895
0001b0 d9 25 73 bd a3 1d 94 3b 7f bb 74 3d ee 61 30 3d
       -0.059362266 0.0045201345 0.059749123 0.043062143
0001c0 35 95 32 ba c0 32 0a bd 21 61 0d bd 3e 09 82 3d
       -0.0006812395 -0.033739805 -0.034516457 0.06349419
0001d0 f1 ed c7 bc 18 27 08 3c ba 4c 12 3d e6 89 37 3d
       -0.024405451 0.008310102 0.035717703 0.044809245
0001e0 da 7e 9d 3d 9f dd 50 3d fd a6 1c bd 16 75 e3 bc
       0.07690211 0.050992604 -0.03824519 -0.027765792
0001f0 1f 59 e0 bc fb 21 6b bd a1 53 55 bc 78 ab 22 3d
       -0.027386246 -0.057405453 -0.013020427 0.039714307
000200 94 a1 2d 3d 79 33 49 3d bc 2a 5a 3d da e3 30 3d
       0.04239042 0.049121354 0.05326341 0.043186046
000210 3c 5a 0f 3d f0 ed 99 3b ce 4d 6d bc ba c1 0a bd
       0.034998164 0.004697554 -0.014483882 -0.03387616
000220 6e ac 5e bd 1c 1d 9f bd c3 2c 1b 3c 93 6f 4a 3c
       -0.05436366 -0.07769224 0.009471121 0.012355703
000230 e5 76 36 3d bc b4 77 3d e1 2d 3f 3d 15 d3 6a bc
       0.04454698 0.060475096 0.046674613 -0.014332552
000240 b3 2c 8e 3d 12 0a e5 3c b5 bb 5c bd bc 5c 46 bd
       0.069421194 0.027958903 -0.05388995 -0.048428282
000250 e2 ad 57 3c 6f 45 35 bb 8e eb 01 bd 65 50 e8 bb
       0.0131640155 -0.0027659794 -0.031718783 -0.007089662
000260 a3 b4 2e 3d c2 bd f6 3c fc 26 83 3d 2b d4 5c 3d
       0.042652737 0.03011978 0.0640392 0.053913277
000270 b1 09 6a 3c 54 c3 65 bd 98 57 2c bc de dc b4 3c
       0.014284537 -0.056094483 -0.010518931 0.022077974
000280 44 ee b3 3c a6 e7 94 3c 40 56 18 bd 81 86 92 bc
       0.0219642 0.018176865 -0.03719163 -0.017886402
000290 4e 8a de 3b 39 3b df bc 71 7a 30 bd 2b e6 91 3c
       0.0067913895 -0.02724992 -0.04308552 0.017809948
0002a0 54 4a f0 bc ab 8e 29 3d 66 c0 fd 3c b6 32 18 3d
       -0.029332317 0.041395824 0.030975532 0.037157737
0002b0 7c c1 25 3c a0 c4 59 bd 54 7e 6b bd 08 09 7e bd
       0.010116931 -0.05316603 -0.057493523 -0.06202033
0002c0 71 77 38 bd 90 78 a4 b6 f0 75 42 bd 64 0f 93 3c
       -0.045035783 -4.901616e-06 -0.047475755 0.017951675
0002d0 a4 17 42 3d 09 f0 06 bd 1a 3c 88 3c 7a d8 92 bd
       0.047385827 -0.03294376 0.016630221 -0.07170196
0002e0 3d 60 08 bb a5 a7 c5 3b ef ac da 3b 98 bb 2a bd
       -0.0020809316 0.0060319477 0.0066734473 -0.04168281
0002f0 90 80 62 3d 28 64 84 bd 6a ab 0e 3d 7c f5 66 bd
       0.055298388 -0.06464416 0.034831442 -0.056386456
000300 49 f7 8b bc e2 71 86 bd e3 bf e2 3c 79 f9 05 bb
       -0.017085688 -0.0656469 0.02767939 -0.0020442887
000310 19 09 5f bd 53 4d 56 3c c7 66 f0 3b 3b c3 8f 3d
       -0.054452036 0.013079959 0.0073364708 0.07019659
000320 31 b9 0c bd 2e 00 4f 3c
       -0.0343563 0.01263432

_bins.0._pooling_modules._pooling_module._fc_modules.5._fc_block._layers.0.weight f4 [1, 202]
000000 b4 ab 4e 3d 92 a3 40 bd 1c 31 b6 bc ca fc 28 3c
       0.050456718 -0.047030993 -0.022240214 0.010314176
000010 18 22 27 3d 4c 84 70 bd df f1 7a bc 2a 39 f1 bc
       0.040804 -0.058719918 -0.015316456 -0.029446203
000020 39 99 54 3d 9e 63 c4 3c ac 6f 96 bd 38 22 b5 3a
       0.051903937 0.023973282 -0.073455185 0.0013819402
000030 ac 7a 88 bd 29 09 7b ba 35 21 80 bb 49 be 30 bd
       -0.06664023 -0.0009576255 -0.0039102086 -0.04315022
000040 72 f8 3c bd 33 6b 83 bd 0d 6d 4d bd 90 8f 26 3d
       -0.046135373 -0.06416931 -0.050152827 0.040664256
000050 eb ac 02 3d 92 d3 87 3c 2c b1 96 bd e3 30 58 bd
       0.03190319 0.016580377 -0.073580116 -0.052780997
000060 7e 18 0c 3d d3 38 44 bd 9a 8d cf bc 64 88 61 3d
       0.034203045 -0.047905754 -0.025336076 0.055061713
000070 a2 a8 1a bd e1 83 99 bd a9 5b a8 bc ca da 28 39
       -0.037758477 -0.07495857 -0.02055152 0.00016103234
000080 7d f0 f8 3b 23 35 60 bd 1f 59 56 3d 75 d2 1e bd
       0.007597028 -0.054738175 0.052331086 -0.038774926
000090 5a 7f 3c 3d 0f 20 b0 3c f6 da c6 bc 46 51 86 bd
       0.04601989 0.021499662 -0.02427433 -0.065584704
0000a0 67 77 a8 bc ce e5 1b 3d 72 c1 87 bd 7d d9 bd bc
       -0.020564748 0.038060956 -0.06628694 -0.023174996
0000b0 2f fc 20 bd 2a 02 6b bc 09 71 26 bd 2e c1 27 3a
       -0.039303 -0.014343778 -0.040635142 0.00063993305
0000c0 46 d4 6d 3d 4c 69 27 3c 8b d3 81 3c 6d cf 8d bc
       0.058063768 0.010217976 0.015847942 -0.017310822
0000d0 60 95 61 3d 1c 5b b3 3c 72 6e 6b bd 90 2c b5 3c
       0.055074096 0.02189403 -0.057478376 0.022115976
0000e0 b6 d0 61 3d 1a 45 08 bd 98 09 5c 3c 98 ac 9d bd
       0.055130683 -0.033269025 0.013430022 -0.07698935
0000f0 9b 02 79 bd 5e 58 83 bd 6f 19 0e bd 74 85 f9 3c
       -0.0607935 -0.06413339 -0.034692224 0.030459143
000100 50 87 c6 bc bb a0 e0 3c a7 c1 9b bb e7 7d 2b bd
       -0.024234444 0.027420392 -0.00475331 -0.041868117
000110 2c 2c 0f bd ca 9c 78 bd cf eb 8d bd 84 53 b3 bb
       -0.034954235 -0.0606964 -0.069297425 -0.0054726023
000120 1a bb e9 bc 82 61 38 3d 4b 7c 97 bd 79 7e 0c 3c
       -0.0285316 0.045014866 -0.07396754 0.008575075
000130 d7 4e 48 3d 13 86 cb 3c c8 44 c3 3c fc 95 09 3d
       0.048903313 0.024844205 0.023836508 0.033590302
000140 33 60 19 bd 82 c0 8c 3d 48 6a e6 bc 02 7f 80 bd
       -0.03744526 0.068726555 -0.02812685 -0.06274225
000150 0b 60 91 3d e6 c9 6c bd 73 12 92 bc 09 5c ca bc
       0.07098397 -0.057809733 -0.017831063 -0.024702089
000160 38 7f 3a bd fd 18 5c 3d c4 80 19 bc 54 4b 60 3d
       -0.04553148 0.05373477 -0.009369079 0.05475934
000170 f9 62 25 bd 92 98 90 bd a2 57 c0 bc 76 fc 32 3c
       -0.04037759 -0.070603505 -0.023479287 0.010924449
000180 fe b7 bc 3c 07 b4 d3 3c f0 dc 3e bd d9 1c 2d 3d
       0.023036953 0.02584268 -0.04659742 0.04226384
000190 63 74 15 3c 78 83 01 bd 46 d4 65 b8 82 3f a9 bc
       0.009121987 -0.03161952 -5.479555e-05 -0.020660166
0001a0 91 71 80 3b 33 5a 9d 3c 2f 58 8c 3c 24 52 3e bd
       0.003919788 0.01920805 0.017131893 -0.046465054
0001b0 2e ba 43 3c c7 3e 17 3d 22 32 f4 3c b0 a7 1c 3d
       0.011946244 0.036925104 0.029809061 0.038245857
0001c0 9e 48 06 3d 2f f4 4f 3c 5f 99 99 3c a2 a5 16 bd
       0.032784097 0.012692495 0.01874989 -0.036779054
0001d0 a9 b3 c2 bc 49 d3 4b bd d0 07 8a 3c b6 95 32 bd
       -0.02376731 -0.049762044 0.016849428 -0.043599807
0001e0 34 23 1e 3d 68 be 50 bd 1e ba 96 3c 2e d6 51 bd
       0.03860779 -0.050962836 0.018399294 -0.05122965
0001f0 2a 13 46 bd 55 50 83 bd 38 a1 75 3d b6 61 88 3d
       -0.04835812 -0.064118065 0.059968203 0.06659262
000200 19 a6 8d bc 5a f9 64 bc f8 81 7f 3d a0 8f 8b 3d
       -0.017291116 -0.013975466 0.062379807 0.06814504
000210 93 16 d1 3c 3f 4f 18 bd d3 33 8f 3c 60 fa 97 3b
       0.02552346 -0.03718495 0.017480766 0.0046380013
000220 c3 9c 22 3d d3 4e c0 3c 58 3e be 3c be 00 d0 bc
       0.03970028 0.023475086 0.023223087 -0.025390979
000230 2a 65 8c bd e1 e9 13 bc 9b 98 75 3d 58 f7 c8 3b
       -0.06855233 -0.009027929 0.05995999 0.0061330013
000240 bb 41 0c 3c 3a 92 c9 3b 87 a1 ac bc 6f 59 2a 3d
       0.008560593 0.006151465 -0.021073116 0.041589197
000250 50 55 4c 3d 84 00 4f bc 06 ff 5c 3d ec 15 43 3d
       0.049886048 -0.0126344 0.053954147 0.04762833
000260 68 dc 07 bd 4d 68 18 bc 1a 00 07 bd 8c 90 70 bc
       -0.03316918 -0.009302211 -0.03295908 -0.0146829
000270 eb 3c 78 3d a2 5d fb bc d4 95 1e bd 9d bf 56 3c
       0.06060497 -0.030684296 -0.038717106 0.013107208
000280 27 ab 8c 3d cd 80 87 bd 6b 65 73 bd a6 f7 1f 3c
       0.06868582 -0.06616364 -0.05942289 0.009763634
000290 02 d3 86 bd 46 c2 77 3d 14 d9 68 3c ac 4a 86 bd
       -0.06583215 0.060488008 0.014211912 -0.06557211
0002a0 1b 64 64 3d 3c 5b 94 bd c1 79 48 bd 01 a4 65 bd
       0.05575953 -0.07243964 -0.04894424 -0.05606461
0002b0 54 3d 6d bd b7 fa 1c 3d d4 8a 12 3d 7e 28 2a 3d
       -0.057919815 0.038325038 0.035776928 0.041542523
0002c0 09 02 8f 3b 54 5b 7b 3d a0 2f c4 3c cc 03 3e bc
       0.0043642563 0.061366394 0.02394849 -0.011597585
0002d0 eb 94 0b 3d 99 13 66 3d 63 6d 3b bc 8c 67 84 3d
       0.034077566 0.056171034 -0.011439654 0.064650625
0002e0 9c 69 57 bb d2 a2 ab 3c f8 cc 25 3d af 99 e5 3c
       -0.0032869345 0.020951662 0.040478677 0.028027384
0002f0 b9 1b 3b 3c ef d5 4d bd 48 cd 78 bc 26 a9 cf 3c
       0.011420184 -0.05025285 -0.015185662 0.025349211
000300 75 4a 54 bc 5d 37 97 bc 03 12 35 3c 23 b0 02 3d
       -0.012957205 -0.018459016 0.011051658 0.03190626
000310 cd 72 8c bd d7 77 85 3c 59 f3 41 bd 46 5d b7 bb
       -0.06857834 0.016292496 -0.047351215 -0.005595836
000320 ed d0 60 3d 53 76 61 bd
       0.054886747 -0.055044483

_bins.0._pooling_modules._pooling_module._fc_modules.6._fc_block._layers.0.weight f4 [1, 202]
000000 27 b0 3c 3d 75 3d 94 bc a6 e4 88 3d bc 7f 91 bb
       0.04606643 -0.018095711 0.06684236 -0.004440276
000010 fb 92 7c 3d a9 cf 73 bd be a4 5b bd 1e ba 84 bd
       0.06166361 -0.059524212 -0.053623907 -0.064808115
000020 8f 67 8d 3c 89 39 88 3a a4 8f 05 bd 74 1b b3 b8
       0.017261295 0.0010393123 -0.03260769 -8.540499e-05
000030 0b 92 d2 bc 82 44 0f bd f2 13 09 bc 46 60 82 3d
       -0.025704404 -0.034977444 -0.008366572 0.06366019
000040 de d6 36 3d 21 0c fd 3b cc db 17 bd 4a eb cd 3c
       0.044638507 0.007722393 -0.03707485 0.025136609
000050 23 e4 4c 3d 9d 8f 00 3b 6b 27 68 3d 45 6a 6c 3d
       0.050022256 0.001961685 0.056678217 0.057718534
000060 28 55 1f 3d 90 b7 b2 bb 5e ea 80 3b 79 8e 07 bd
       0.03889957 -0.0054540113 0.0039341887 -0.033094857
000070 47 4f 6e 3d 9e 3f 18 3d bd b1 4e bd 73 e0 06 37
       0.058181074 0.037170045 -0.050462473 8.039281e-06
000080 b3 eb 5e bd f2 f7 83 3c 53 e9 e3 bc 09 55 55 bd
       -0.054424 0.01610944 -0.027821219 -0.05208305
000090 07 3a d9 bc a5 90 9e 3b 3a 83 7f 3d 1b f6 c6 3b
       -0.026516927 0.0048390203 0.062381007 0.0060718185
0000a0 80 ee 21 3d d3 c6 53 bd 5a ad 7b 3b d0 b0 65 3b
       0.039534092 -0.051703285 0.0038402886 0.0035048015
0000b0 c5 31 d4 3c 57 8f 63 3d e1 e3 ce 3c 74 72 80 3c
       0.025902638 0.05555662 0.025255146 0.015679576
0000c0 4c 83 b2 3c 67 f5 b9 bc 55 ac bc 3c e1 f7 25 3d
       0.021791123 -0.022700025 0.023031393 0.0405196
0000d0 78 4c e7 3c c7 b2 15 bc e9 00 1e ba 50 e0 1f 39
       0.028234705 -0.009136862 -0.00060273573 0.00015246985
0000e0 b6 f6 56 bd 4b 0f b5 bc 4c 01 47 3d 89 91 8f ba
       -0.052481376 -0.022102019 0.04858522 -0.0010953407
0000f0 12 74 56 bd d3 a9 90 3d 6c 0b d0 bc 9b 93 10 3d
       -0.052356787 0.070636414 -0.025396071 0.035297018
000100 6b 9f 23 bb 6d 64 2d 3d a2 54 05 3d 74 be 0b bd
       -0.0024966847 0.0423321 0.032551415 -0.034117177
000110 cf de 2e bd 26 2e 24 bd 65 70 bc 3c 0e 75 fb bc
       -0.042692956 -0.040083073 0.023002813 -0.030695464
000120 79 5b 5b bc 62 30 64 3c f0 d4 5a bd 41 94 a6 bb
       -0.013388508 0.013927551 -0.05342573 -0.005083591
000130 5a 86 5d bd 52 d0 06 3b 03 60 58 3c b5 ec 56 bd
       -0.054083206 0.0020570946 0.013206485 -0.052471835
000140 91 25 ba bc 9b 43 8b 3c 6b c6 46 bc cb 51 9b bc
       -0.022722991 0.01700001 -0.0121322675 -0.0189599
000150 9d 32 33 bc 62 bd d7 3c 38 9f ff bc 11 3a 11 3c
       -0.01093736 0.026335422 -0.031203851 0.008863942
000160 69 9b 99 bc e6 64 1d 3d bd 6c 44 3d a7 d4 8e 3a
       -0.018750863 0.038426302 0.047955263 0.0010897116
000170 b5 b9 71 bc 7e 07 89 3c 72 be 90 bc 83 9c 81 3d
       -0.014753749 0.016727205 -0.017668936 0.0632868
000180 34 af c1 3a a1 c5 18 3d 80 68 5b 3c 94 8a e3 3c
       0.0014776946 0.03729785 0.013391614 0.02777604
000190 7d 92 c1 3b de 9c 21 bc 88 19 6d bd c9 b2 d1 3b
       0.0059073553 -0.00986406 -0.057885677 0.0063994867
0001a0 dc b8 1f bd 93 4c a7 3c ba a2 3c bd e8 99 b2 bc
       -0.038994655 0.020422256 -0.046053626 -0.021801904
0001b0 94 f3 8b bb 10 d1 d8 3c 5b 59 cd 3c 8d f8 31 3d
       -0.00427098 0.026466876 0.025067022 0.043449927
0001c0 e6 b4 8c bc c1 d1 86 3d 9c 80 36 bd 3e e8 51 bd
       -0.017176103 0.06582976 -0.044556245 -0.051246874
0001d0 6a 39 5f bd 9f ef c2 3c 6d cd 8d bd e1 71 d9 bc
       -0.054498114 0.0237959 -0.069239475 -0.02654356
0001e0 c7 4e 38 bd ad b1 50 bd 82 b4 97 bd 65 bf 7b bc
       -0.044997003 -0.050950695 -0.07407476 -0.015365456
0001f0 20 be 18 bd 14 95 0b 3d 68 55 6d bd 43 27 30 bd
       -0.037290692 0.03407772 -0.057942778 -0.043006193
000200 23 3a 83 bd 44 2d 69 bd 6e 78 57 3d 02 13 3b bd
       -0.06407573 -0.056927934 0.052605085 -0.045672424
000210 0f 87 7e 3c 28 8a 38 bd 67 92 fe bc 5b 3e 85 3b
       0.01553513 -0.04505363 -0.03107567 0.0040662712
000220 89 ca 73 3d 7a 29 6c 3d e4 d3 29 3d 3a 32 ae bc
       0.059519324 0.057656743 0.04146184 -0.021264184
000230 1a 9c 5e bd 78 10 7a 3c d1 fa ef bb 5a ae 6f 3d
       -0.05434809 0.0152627155 -0.007323601 0.058515884
000240 b9 8b 2a bc ac 01 2d 3b ee 73 31 3d 72 c0 5b bd
       -0.010409289 0.0026398702 0.04332345 -0.053650327
000250 cd 78 0b 3d 05 b1 2e 3d b3 db 14 bc d4 d0 63 3d
       0.03405075 0.042649288 -0.0090855835 0.055619076
000260 de c4 66 3d 36 dd 0c 3d 96 2a 59 3b 51 d1 0b bd
       0.05634009 0.03439065 0.0033136955 -0.034135167
000270 0c 06 9a ba a9 99 8f 3d f8 9f a7 bb b7 59 16 bd
       -0.001175107 0.0701173 -0.0051155053 -0.036706652
000280 c2 d9 6c 3d 2f e5 89 bc 24 bb 78 3a c3 84 70 3d
       0.057824858 -0.016832916 0.00094883353 0.05872036
000290 8f 1c 67 bd 87 26 11 3d dc 64 df 3c ff 23 0b bd
       -0.05642372 0.035437133 0.027269773 -0.033969875
0002a0 b4 56 8b bd 38 cf 25 bd dc 32 b8 3b 2f c9 82 bd
       -0.06803647 -0.040480822 0.0056212973 -0.06386029
0002b0 13 64 65 bc 1f 7a 10 3d 96 72 d4 bb a1 7a 09 3d
       -0.01400091 0.035272714 -0.0064833863 0.033564214
0002c0 8d 95 9a 3d 36 86 74 bc 69 36 96 bd 3f d0 e5 bc
       0.07548056 -0.0149245765 -0.07334597 -0.028053401
0002d0 ae 23 2a 3d 93 4a 4a bd 7a 47 1c 3d ff 3b b7 3c
       0.041537933 -0.049387526 0.038154103 0.022367476
0002e0 12 bc 20 bd a9 99 95 3d 27 7b 2b bd dc 43 85 3d
       -0.039241858 0.07304699 -0.041865494 0.06507084
0002f0 fa b0 83 3c 66 2d 1c bd da d0 bb 3c 08 ea f0 bc
       0.0160756 -0.038129233 0.022926737 -0.02940847
000300 bb 53 13 3c b1 c5 04 bd b0 8c e1 bc 1f 56 fa bc
       0.008992131 -0.032415096 -0.027532905 -0.030558644
000310 6b 88 33 3d 5b 24 d0 bb 30 c0 0e bd f6 1e 02 3c
       0.04383127 -0.00635199 -0.034851253 0.007941952
000320 e0 c4 01 bd c2 ea 80 bd
       -0.031681895 -0.062947765
