test/models/nn_models/region_based_m1/continuous/regions_2_bins.pt (torch, 265085 bytes, 135 tensors)

_bins.0._pooling_modules._pooling_module._pooling_modules.0._rocket_kernels.weight f4 [30, 1, 1, 12]
0.0 -0.0 -0.0 -0.6313081 -1.1583003 -0.56951547 -0.6374835 0.5859153
1.2367163 0.43769473 0.0 -0.0 -0.0 0.09223856 1.065319 -0.72433156
0.19761944 -1.0957739 1.1063552 0.66470665 0.39424476 -1.0753224 -0.5379155 -0.7909885
-0.0 0.45018446 -0.5197065 1.0036958 1.4034837 -1.2707636 2.904385 0.22919077
0.85496855 0.028861538 1.8486637 1.66621 -0.0 -0.0 0.0 1.17558
0.34684825 -0.14285587 0.3638283 0.7860654 0.85465795 -1.1479429 0.0 -0.0
0.0 2.7985883 1.3607581 -0.7759956 -0.16709797 -1.2864187 0.5322117 -1.5255967
-1.2117904 0.11241841 0.13964486 -0.27914923 0.0 -0.0 0.0 1.5056868
0.7766697 -0.16578324 1.6767647 -1.6727629 -2.3662605 -0.14417921 0.0 0.0
0.0 1.2449669 -0.8725225 0.19969341 1.0655031 -0.18039504 1.035743 0.4045761
0.13970749 0.20261711 0.28079006 -0.9095016 0.0 -0.010189325 0.66455805 0.50202024
0.12898546 -0.31387085 -1.5269667 1.1327881 0.61697847 -1.8351299 0.30996072 -1.0630636
-0.0 0.0 0.0 0.2152552 -0.28643402 0.21526098 -0.52622145 -1.738767
-0.6430405 1.97004 -0.0 0.0 -0.0 0.69299483 -3.1193838 -0.21440673
0.5768794 -0.51059115 0.40596566 -0.56017005 -1.5612794 -0.14164373 -0.68011767 0.51880556
-0.0 -1.748065 0.93462205 0.11665487 -0.5347694 -0.24066505 0.03727912 -0.09979841
-1.5822403 2.1900263 -1.1709728 0.0056913868 0.0 -0.28127044 -0.23229581 -0.63869643
2.291596 1.3929102 0.6809287 -0.73729354 2.7890053 0.53403705 -1.3236359 0.26322666
-0.0 1.0042541 -1.6065664 -0.30137202 -0.88610893 -0.4271721 -0.59171224 -0.7230188
-2.2049594 1.7353425 -1.2685632 0.16612493 -0.0 0.0 0.0 0.3715458
-0.7068706 0.63681436 2.1363826 -1.9332205 0.7671363 -0.5595132 0.0 0.0
0.0 -0.0 -0.08723816 0.19035283 -0.24467003 1.962855 -2.447116 0.11565916
1.2725837 0.94136393 0.6409256 -0.0 0.0 0.0 -0.7327426 0.33107883
-0.25066382 0.61460996 -0.3531068 -0.46959692 0.10335617 0.3166198 0.5049336 0.0
0.0 0.0 -0.06279989 0.9967023 0.60487735 1.4080021 0.92414725 0.14461656
0.9526062 -0.16172546 0.5548047 0.0 -0.0 0.0 0.52697855 -0.8723994
-0.390797 -0.9888053 0.08443232 -0.23011807 0.92216134 -0.30471262 -0.2855112 0.0
0.0 0.0 0.058297604 -0.90855455 -1.9869928 1.6244949 -0.6372715 -0.6322429
0.5413051 0.29452273 -2.320095 0.0 0.0 0.0 0.39292723 -0.5415511
1.0125927 -0.20708428 -1.0382625 -1.9021237 1.5919076 -0.03560368 -0.18107384 -0.0
-0.0 0.0 0.94105494 -0.024477348 0.5538814 -0.961846 -0.27552235 -1.523314
0.61493826 1.351479 1.387698 0.0 -0.0 -0.66050106 0.70817333 1.3266412
00000000: 0000 0000 0000 0080 0000 0080 689d 21bf
00000010: 2f43 94bf c4cb 11bf 1e32 23bf 8cfe 153f
00000020: b84c 9e3f 8619 e03e 0000 0000 0000 0080
00000030: 0000 0080 92e7 bc3d 5f5c 883f cb6d 39bf
00000040: c05c 4a3e 5242 8cbf 0c9d 8d3f 372a 2a3f
00000050: 73da c93e 2aa4 89bf d5b4 09bf 397e 4abf
00000060: 0000 0080 947e e63e 7c0b 05bf 1b79 803f
00000070: 5ba5 b33f 62a8 a2bf 72e1 3940 fcb0 6a3e
00000080: 38df 5a3f 086f ec3c 03a1 ec3f 5f46 d53f
00000090: 0000 0080 0000 0080 0000 0000 6879 963f
000000a0: 1896 b13e cf48 12be b447 ba3e 953b 493f
000000b0: ddca 5a3f cbef 92bf 0000 0000 0000 0080
000000c0: 0000 0000 121c 3340 522d ae3f a6a7 46bf
000000d0: bb1b 2bbe 5ea9 a4bf 073f 083f c146 c3bf
000000e0: f31b 9bbf a03b e63d 10ff 0e3e a6ec 8ebe
000000f0: 0000 0000 0000 0080 0000 0000 58ba c03f
00000100: d3d3 463f 15c3 29be 3aa0 d63f 181d d6bf
00000110: d070 17c0 b7a3 13be 0000 0000 0000 0000
00000120: 0000 0000 135b 9f3f a25d 5fbf 6e7c 4c3e
00000130: 6862 883f 7ab9 38be 3a93 843f 9924 cf3e
00000140: 7b0f 0f3e dc7a 4f3e b7c3 8f3e 19d5 68bf
00000150: 0000 0000 20f1 26bc 7a20 2a3f 6684 003f
00000160: c414 043e aeb3 a0be a573 c3bf 33ff 903f
00000170: 4df2 1d3f 89e5 eabf 2cb3 9e3e 7812 88bf
00000180: 0000 0080 0000 0000 0000 0000 dc6b 5c3e
00000190: 7ba7 92be 606d 5c3e 73b6 06bf eb8f debf
000001a0: 4d9e 24bf 452a fc3f 0000 0080 0000 0000
000001b0: 0000 0080 1c68 313f fca3 47c0 708d 5bbe
000001c0: 5eae 133f 1ab6 02bf bbda cf3e 4e67 0fbf
000001d0: 01d8 c7bf 0e0b 11be 311c 2ebf 71d0 043f
000001e0: 0000 0080 98c0 dfbf 6443 6f3f c0e8 ee3d
000001f0: a6e6 08bf e670 76be feb1 183d 1c63 ccbd
00000200: da86 cabf 6429 0c40 70e2 95bf d07e ba3b
00000210: 0000 0000 ae02 90be f4de 6dbe 9c81 23bf
00000220: 82a9 1240 e24a b23f 5851 2e3f 45bf 3cbf
00000230: 107f 3240 a7b6 083f e76c a9bf a5c5 863e
00000240: 0000 0080 668b 803f f8a3 cdbf 6f4d 9abe
00000250: 09d8 62bf 4db6 dabe 747a 17bf c317 39bf
00000260: 0e1e 0dc0 b41f de3f 4760 a2bf a71c 2a3e
00000270: 0000 0080 0000 0000 0000 0000 403b be3e
00000280: 79f5 34bf 4406 233f 7eba 0840 c573 f7bf
00000290: 0b63 443f 423c 0fbf 0000 0000 0000 0000
000002a0: 0000 0000 0000 0080 eca9 b2bd daeb 423e
000002b0: c88a 7abe d53e fb3f 8c9d 1cc0 b6de ec3d
000002c0: 06e4 a23f 3afd 703f b313 243f 0000 0080
000002d0: 0000 0000 0000 0000 0595 3bbf 2a83 a93e
000002e0: 0257 80be 1457 1d3f 6aca b4be 026f f0be
000002f0: 66ac d33d fe1b a23e 5443 013f 0000 0000
00000300: 0000 0000 0000 0000 3b9d 80bd e227 7f3f
00000310: 3ed9 1a3f 6a39 b43f ea94 6c3f 5d16 143e
00000320: 00de 733f 5c9b 25be ae07 0e3f 0000 0000
00000330: 0000 0080 0000 0000 11e8 063f 9155 5fbf
00000340: 8b16 c8be 5822 7dbf daea ac3d 12a4 6bbe
00000350: c412 6c3f 4b03 9cbe 862e 92be 0000 0000
00000360: 0000 0000 0000 0000 78c9 6e3d 0897 68bf
00000370: c855 febf 73ef cf3f 3a24 23bf acda 21bf
00000380: f992 0a3f afcb 963e 707c 14c0 0000 0000
00000390: 0000 0000 0000 0000 c22d c93e 18a3 0abf
000003a0: a39c 813f e70d 54be c9e5 84bf ca78 f3bf
000003b0: a1c3 cb3f 2ad5 11bd 6c6b 39be 0000 0080
000003c0: 0000 0080 0000 0000 fae8 703f b884 c8bc
000003d0: 2ccb 0d3f 8a3b 76bf 4411 8dbe f4fb c2bf
000003e0: 986c 1d3f 44fd ac3f 17a0 b13f 0000 0000
000003f0: 0000 0080 9916 29bf d94a 353f 61cf a93f

_bins.0._pooling_modules._pooling_module._pooling_modules.0._rocket_kernels.bias f4 [30]
-0.65375006 0.34213054 0.72617555 -0.5618688 -0.24881673 -0.33553982 -0.92557514 0.5150486
0.81434083 0.26269925 -0.9316951 -0.2674042 0.093453646 0.9873184 -0.99999225 -0.41197264
-0.9263171 0.9409089 0.8114368 0.48986602 -0.6868156 -0.6810305 0.6504357 0.058627844
0.20845294 -0.086146235 -0.93783844 -0.58121765 -0.114257455 0.06348622
00000000: 2a5c 27bf bc2b af3e a4e6 393f a2d6 0fbf
00000010: d0c9 7ebe e0cb abbe 7ef2 6cbf 3ada 033f
00000020: a478 503f 8480 863e 9283 6ebf 34e9 88be
00000030: a064 bf3d e6c0 7c3f 7eff 7fbf 14ee d2be
00000040: 1e23 6dbf 68df 703f 52ba 4f3f b8cf fa3e
00000050: 26d3 2fbf 0458 2ebf f482 263f c023 703d
00000060: b074 553e 706d b0bd 2e16 70bf aeca 14bf
00000070: d0ff e9bd 1005 823d

_bins.0._pooling_modules._pooling_module._pooling_modules.0._fc_modules.0._fc_block._layers.0.weight f4 [15, 60]
0.048770383 0.021886935 -0.069871664 0.0395404 -0.0033457612 0.043422237 0.12068261 0.014064264
-0.11586434 -0.059521228 -0.09038433 0.08184541 0.09965103 -0.020769345 -0.05886324 -0.106396586
-0.0603673 -0.04125721 -0.11492798 0.007563145 0.11812609 0.093928955 0.12013044 0.11474741
0.035229012 0.020130524 0.057293084 0.05854391 -0.0998471 0.12304997 0.0563187 0.11722134
0.08299603 0.12880471 -0.13509366 -0.017565085 0.061477363 -0.049653895 -0.060099278 -0.031586792
0.11815138 0.049548835 -0.09291012 -0.13446812 0.055703532 0.039897792 -0.020462694 0.051597334
-0.06611015 0.08075322 -0.116020896 0.01206727 -0.051337257 -0.046061885 0.07605681 -0.030754955
0.104876705 -0.030636756 -0.06791128 -0.018515693 -0.098142385 -0.032904014 -0.0029990515 -0.029716576
-0.092802964 0.010977151 0.014218562 0.05977979 -0.107805364 0.07923187 -0.013515615 0.085212894
-0.02932775 -0.08750252 -0.112666726 -0.11640823 0.07458634 0.012923721 -0.027134465 0.029794125
0.0052496637 0.10423658 -0.017951002 -0.06334436 0.059453033 -0.039408367 -0.10955293 -0.09915853
0.12816434 -0.12284468 0.010133171 0.03167307 -0.071453206 0.018495956 -0.055569466 -0.1110531
0.0053502363 -0.10862937 -0.09188869 -0.09847108 0.00046143396 -0.107630305 -0.10690494 -0.0070011057
-0.03475635 -0.073638104 -0.07268806 0.0815729 -0.008462511 0.11453819 -0.08024515 0.09692377
-0.122523606 -0.085900724 0.108379744 0.125675 -0.01951892 -0.070309065 0.062065106 -0.11006678
0.11603544 0.08715038 0.061460454 0.062617175 0.12432628 -0.08098429 0.077704154 -0.11150841
0.0015606853 0.119753815 -0.063166656 0.07549782 0.019052254 -0.0025823181 -0.09362724 0.015674492
0.06660535 -0.109261304 -0.064154945 0.042843 -0.008672208 0.09486653 -0.11153694 0.11147318
0.11591336 -0.10419245 -0.121962935 -0.07407718 0.096159175 0.118889034 0.10590353 0.032269154
-0.049103074 -0.007581771 0.03019901 0.06524715 0.07328457 0.05519115 -0.06963306 0.08547516
0.0052444255 0.03464926 0.11906512 0.035795808 0.1283167 0.0064617065 -0.11349552 -0.032930173
-0.12544782 -0.06339712 -0.114909574 -0.12686878 -0.02930582 -0.0067902836 -0.052532367 0.0891824
-0.023057457 0.046365295 -0.072912924 -0.13619614 0.07849497 -0.09477665 0.07275237 -0.06904868
0.043732822 -0.096082896 -0.07936609 -0.0776503 0.03983511 -0.11389196 0.06396822 0.03246371
-0.10755077 -0.027431674 0.045234594 -0.06352308 0.12667295 0.0011452051 0.050064668 -0.100062944
0.034216814 0.018134002 0.103552245 0.07911161 -0.040345408 -0.11585383 -0.018793242 0.03821399
0.020950591 0.022842558 -0.124069765 0.025125366 0.003947205 0.05528694 -0.09806876 0.10435276
-0.07261322 0.014439806 0.041910034 -0.063160606 -0.11220829 0.054896727 0.043923393 -0.10051684
0.07177747 0.11075431 -0.038399268 -0.05909134 0.014516756 -0.017768154 -0.085353896 0.1083903
-0.112361826 0.014044611 -0.10458838 -0.06412612 0.08510213 0.11656858 -0.08124808 -0.06161488
-0.08684488 0.0040185526 -0.10602592 0.116089344 0.008203662 -0.0052696094 0.051121037 -0.02793227
0.03668886 -0.015535154 0.08526335 0.061608642 -0.10505755 0.006222504 -0.09539812 -0.12199313
00000000: 74c3 473d 3b4c b33c e018 8fbd 1df5 213d
00000010: 8f44 5bbb 84db 313d 7228 f73d cc6d 663c
00000020: 484a edbd 88cc 73bd 6b1b b9bd 919e a73d
00000030: d715 cc3d 7924 aabc 951a 71bd 74e6 d9bd
00000040: b443 77bd 52fd 28bd 5c5f ebbd 42d4 f73b
00000050: 17ec f13d d35d c03d f306 f63d b100 eb3d
00000060: 4c4c 103d c5e8 a43c 27ac 6a3d bdcb 6f3d
00000070: a37c ccbd 9f01 fc3d 70ae 663d be11 f03d
00000080: d3f9 a93d 62e5 033e fe55 0abe a7e4 8fbc
00000090: b0cf 7b3d e261 4bbd a92a 76bd 2761 01bd
000000a0: 5af9 f13d b8f3 4a3d a947 bebd 03b2 09be
000000b0: 6329 643d de6b 233d 61a1 a7bc ba57 533d
000000c0: c264 87bd f261 a53d 5d9c edbd cdb5 453c
000000d0: 0447 52bd 63ab 3cbd acc3 9b3d d1f1 fbbc
000000e0: 99c9 d63d eff9 fabc 1215 8bbd 39ae 97bc
000000f0: e0fe c8bd 5cc6 06bd bc8b 44bb 2d70 f3bc
00000100: 7b0f bebd 82d9 333c f9f4 683c a7db 743d
00000110: 0fc9 dcbd 5244 a23d 9970 5dbc 1984 ae3d
00000120: c040 f0bc 8534 b3bd d0bd e6bd 7067 eebd
00000130: b9c0 983d 04be 533c 1949 debc cf12 f43c
00000140: 5f05 ac3b fd79 d53d fb0d 93bc b0ba 81bd
00000150: 0685 733d ab6a 21bd 495d e0bd a113 cbbd
00000160: 833d 033e fe95 fbbd 9a05 263c 9fbb 013d
00000170: 0f56 92bd d584 973c cf9c 63bd cf6f e3bd
00000180: 0951 af3b 1379 debd 2330 bcbd 35ab c9bd
00000190: 9eec f139 476d dcbd faf0 dabd 8869 e5bb
000001a0: ad5c 0ebd 93cf 96bd 7add 94bd b10f a73d
000001b0: 58a6 0abc 0093 ea3d 9257 a4bd f87f c63d
000001c0: a8ed fabd b8ec afbd 33f6 dd3d f2b0 003e
000001d0: 24e6 9fbc 33fe 8fbd fb37 7e3d b16a e1bd
000001e0: fda3 ed3d e67b b23d f5bd 7b3d 6f3d 803d
000001f0: c79e fe3d 17db a5bd 5b23 9f3d 855e e4bd
00000200: e98f cc3a 7d41 f53d 855d 81bd 9a9e 9a3d
00000210: 7913 9c3c 1c3c 29bb a3bf bfbd cb67 803c
00000220: 6368 883d 64c4 dfbd ab63 83bd 247c 2f3d
00000230: e015 0ebc 6249 c23d 7b6d e4bd 0d4c e43d
00000240: fc63 ed3d da62 d5bd b4c7 f9bd c7b5 97bd
00000250: 1aef c43d 187c f33d f3e3 d83d a92c 043d
00000260: 4e20 49bd 8170 f8bb ea63 f73c 4ca0 853d
00000270: 3816 963d 1e10 623d c79b 8ebd 9a0d af3d
00000280: 6ed9 ab3b 62ec 0d3d 6ad8 f33d a09e 123d
00000290: 7465 033e b9bc d33b 5770 e8bd cae1 06bd
000002a0: 6575 00be 59d6 81bd b655 ebbd e4e9 01be
000002b0: c212 f0bc 0781 debb 2e2c 57bd 43a5 b63d
000002c0: fee2 bcbc 89e9 3d3d 5f53 95bd 0077 0bbe
000002d0: f9c1 a03d 431a c2bd 32ff 943d 6569 8dbd
000002e0: 3021 333d 1cc7 c4bd b08a a2bd 1f07 9fbd
000002f0: 242a 233d 3040 e9bd c501 833d abf8 043d
00000300: 9443 dcbd 64b8 e0bc e947 393d 6318 82bd
00000310: 8eb6 013e b51a 963a 9c10 4d3d cded ccbd
00000320: ee26 0c3d c28d 943c 3313 d43d 4505 a23d
00000330: 3a41 25bd c644 edbd 49f4 99bc 4686 1c3d
00000340: 93a0 ab3c 5120 bb3c 4a18 febd b6d3 cd3c
00000350: 8e57 813b 8f74 623d 46d8 c8bd e6b6 d53d
00000360: 3db6 94bd f094 6c3c dba9 2b3d 595a 81bd
00000370: 76cd e5bd 64db 603d 04e9 333d c6db cdbd
00000380: 1100 933d 28d3 e23d 8d48 1dbd c309 72bd
00000390: b0d7 6d3c 858e 91bc 06ce aebd bcfb dd3d
000003a0: f51d e6bd 5e1b 663c 6f32 d6bd 8e54 83bd
000003b0: 074a ae3d 82bb ee3d 6565 a6bd e25f 7cbd
000003c0: badb b1bd 10ae 833b 1e24 d9bd 40c0 ed3d
000003d0: a768 063c b0ac acbb 4b64 513d 37d2 e4bc
000003e0: 0f47 163d 2987 7ebc 8d9e ae3d 5859 7c3d
000003f0: 6a28 d7bd 26e6 cb3b 1760 c3bd 89d7 f9bd

_bins.0._pooling_modules._pooling_module._pooling_modules.0._fc_modules.0._fc_block._layers.0.bias f4 [15]
-0.02795053 -0.051418744 0.005474885 0.08916111 0.053268146 -0.023126487 -0.019574245 -0.008274431
-0.021011706 -0.06338239 -0.10732527 -0.0025250758 -0.058961462 -0.04131132 0.051347
00000000: 83f8 e4bc 769c 52bd aa66 b33b 1a9a b63d
00000010: b32f 5a3d c273 bdbc 2b5a a0bc 7b91 07bc
00000020: be20 acbc a0ce 81bd 5acd dbbd be7b 25bb
00000030: 9381 71bd 0f36 29bd 3b51 523d

_bins.0._pooling_modules._pooling_module._pooling_modules.0._fc_modules.0._fc_block._layers.1.weight f4 [1, 15]
-0.20348716 0.09181334 0.22269781 -0.07255992 -0.2263939 -0.14071253 -0.16766325 -0.14557147
-0.009562838 -0.1329433 -0.10331124 -0.20418371 -0.07909284 0.12767974 0.12525558
00000000: f05e 50be a208 bc3d e50a 643e 4c9a 94bd
00000010: cdd3 67be f216 10be eaaf 2bbe b010 15be
00000020: 73ad 1cbc 4a22 08be d894 d3bd 8915 51be
00000030: 6dfb a1bd 7abe 023e 0043 003e

_bins.0._pooling_modules._pooling_module._pooling_modules.1._rocket_kernels.weight f4 [30, 1, 1, 12]
-0.0 0.59555703 -1.7652196 -1.1599386 -1.9499497 -1.0004239 -0.537863 -1.180606
0.48768276 -0.58536845 -1.3141586 -0.73152053 -0.0 -0.0 0.0 -1.0843816
0.24055955 -0.16962226 0.33817795 0.26522034 -0.63876283 2.261118 0.0 -0.0
0.0 -0.1262268 0.59983885 1.1126695 -0.15990274 1.2424359 1.9991318 -0.030010702
-0.8506784 -2.4231462 -0.58311164 0.31055397 0.0 1.11542 -1.1534824 1.504876
-0.66721773 2.1609387 0.16789155 -1.0174643 0.80540216 -0.18913068 -0.37015715 -1.8408852
0.0 -0.0 -0.19242947 1.3712859 1.2548147 -0.8131713 0.5954909 -2.0588436
0.693486 -2.4288878 -0.054692477 -0.0 -0.0 -0.0 2.1048784 -0.46567446
0.19215131 0.8891265 0.67756057 0.5184172 0.61204743 1.0866816 0.18500604 -0.0
-0.0 -0.0 0.50109214 -2.6865816 0.54887146 0.102437854 -0.036809016 0.3712532
0.39170977 0.33230224 -1.588957 -0.0 0.0 2.0042858 -0.24854527 -0.61793655
0.33015212 -0.6326313 0.687247 1.8429492 1.5862567 2.323426 -0.63541013 -0.6248797
0.0 -0.0 0.0 -0.28756565 -1.112269 0.9319079 -1.4055039 -0.6759784
-1.7046943 -1.752866 -0.0 -0.0 0.0 0.19623151 -0.40517136 0.5077565
-0.13823076 -0.7672605 0.26183167 -0.0138764875 1.3795081 -0.19245195 1.1654541 -1.2777014
0.0 -0.39861074 0.47129768 0.2859671 1.4249574 2.1059122 -0.12696706 0.4426039
-0.9303605 0.85063624 -0.63619566 -1.3044606 -0.0 -0.52791595 -0.07666622 -0.049651366
0.5153769 1.116522 1.1178715 0.94001305 -1.2409897 -0.31052125 -1.4009966 0.8116664
-0.0 -0.0 -0.0 -1.2606809 0.27152783 1.2894378 -1.8170146 -0.76983804
0.03117516 -0.0017769113 0.0 0.0 -0.0 0.0 -0.0 -1.1988966
0.13513586 0.23359215 -0.542579 -0.56180674 -1.2751092 -0.807267 0.0 -0.0
0.0 0.0 -0.0 0.67893213 0.28225672 -0.5854112 -1.5531268 -0.6699251
1.614753 0.6848906 -0.0 0.0 0.0 0.0 0.0 0.36759713
-1.488391 -0.6235517 -0.10895875 -0.8635721 -0.028219169 1.7177188 -0.0 0.0
0.0 -0.0 -0.0 -0.22159594 2.5284266 -0.5783929 -0.15709837 -0.5989409
1.1502734 1.3933232 -0.0 -0.0 0.0 -0.0 0.0 -0.8853063
0.4348954 0.1235389 0.8635304 -0.0048828926 0.2561902 0.70720077 0.0 0.0
-0.0 0.0 1.2870249 0.6517884 -1.4014931 0.24014199 -0.2699883 -1.177316
-0.2647195 1.0737368 0.50569135 0.0 -0.0 0.0 1.5075214 1.1938385
2.1658564 -0.29196444 0.43680382 -0.255441 0.3252421 0.90190655 -0.10111273 -0.0
-0.0 0.6464622 1.0438668 -0.42897034 0.715405 0.7929619 0.96423095 0.28791392
-0.49024662 0.27769095 -1.8408921 -0.29598486 0.0 -1.4462094 1.7094849 -0.077709965
00000000: 0000 0080 6d76 183f b7f2 e1bf de78 94bf
00000010: f497 f9bf e40d 80bf 64b1 09bf 191e 97bf
00000020: 8eb1 f93e b5da 15bf 5936 a8bf ee44 3bbf
00000030: 0000 0080 0000 0080 0000 0000 04cd 8abf
00000040: 3e55 763e 75b1 2dbe a925 ad3e f6ca 873e
00000050: f685 23bf 28b6 1040 0000 0000 0000 0080
00000060: 0000 0000 9941 01be 0a8f 193f f46b 8e3f
00000070: 8bbd 23be 2408 9f3f 8de3 ff3f 01d9 f5bc
00000080: 0fc6 59bf d414 1bc0 ce46 15bf ee00 9f3e
00000090: 0000 0000 15c6 8e3f 50a5 93bf c79f c03f
000000a0: c8ce 2abf d24c 0a40 c3eb 2b3e 453c 82bf
000000b0: d62e 4e3f 79ab 41be 3d85 bdbe 20a2 ebbf
000000c0: 0000 0000 0000 0080 3b0c 45be 4c86 af3f
000000d0: c59d a03f ff2b 50bf 1772 183f 18c4 03c0
000000e0: 4c88 313f e672 1bc0 3805 60bd 0000 0080
000000f0: 0000 0080 0000 0080 54b6 0640 e26c eebe
00000100: 50c3 443e cb9d 633f 9c74 2d3f fdb6 043f
00000110: 24af 1c3f 6218 8b3f 3972 3d3e 0000 0080
00000120: 0000 0080 0000 0080 9347 003f f4f0 2bc0
00000130: d782 0c3f f0ca d13d 0dc5 16bd e614 be3e
00000140: 2f8e c83e 8523 aa3e f162 cbbf 0000 0080
00000150: 0000 0000 3846 0040 a782 7ebe 1731 1ebf
00000160: b309 a93e 20f4 21bf 6bef 2f3f c2e5 eb3f
00000170: 760a cb3f 03b3 1440 3daa 22bf 1ef8 1fbf
00000180: 0000 0000 0000 0080 0000 0000 ce3b 93be
00000190: d55e 8ebf 8491 6e3f 8de7 b3bf ec0c 2dbf
000001a0: 6c33 dabf ea5d e0bf 0000 0080 0000 0080
000001b0: 0000 0000 eaf0 483e 9f72 cfbe 54fc 013f
000001c0: 5d8c 0dbe 2f6b 44bf cd0e 863e 355a 63bc
000001d0: b993 b03f 2012 45be 9a2d 953f b88b a3bf
000001e0: 0000 0000 b516 ccbe ee4d f13e 486a 923e
000001f0: 0165 b63f 44c7 0640 a703 02be fa9c e23e
00000200: 1b2c 6ebf 4cc3 593f b8dd 22bf 91f8 a6bf
00000210: 0000 0080 8025 07bf 2e03 9dbd 3b5f 4bbd
00000220: beef 033f 31ea 8e3f 6a16 8f3f b2a4 703f
00000230: c0d8 9ebf a4fc 9ebe db53 b3bf 5fc9 4f3f
00000240: 0000 0080 0000 0080 0000 0080 fe5d a1bf
00000250: b205 8b3e 4c0c a53f ef93 e8bf 1b14 45bf
00000260: 0d63 ff3c 40e7 e8ba 0000 0000 0000 0000
00000270: 0000 0080 0000 0000 0000 0080 7275 99bf
00000280: 0e61 0a3e c832 6f3e 75e6 0abf 91d2 0fbf
00000290: c736 a3bf 0da9 4ebf 0000 0000 0000 0080
000002a0: 0000 0000 0000 0000 0000 0080 7fce 2d3f
000002b0: f483 903e 82dd 15bf dccc c6bf 3680 2bbf
000002c0: 3ab0 ce3f fe54 2f3f 0000 0080 0000 0000
000002d0: 0000 0000 0000 0000 0000 0000 b135 bc3e
000002e0: 9983 bebf 16a1 1fbf c425 dfbd 1013 5dbf
000002f0: e32b e7bc 36de db3f 0000 0080 0000 0000
00000300: 0000 0000 0000 0080 0000 0080 0cea 62be
00000310: bed1 2140 8f11 14bf 65de 20be 3154 19bf
00000320: 293c 933f 6a58 b23f 0000 0080 0000 0080
00000330: 0000 0000 0000 0080 0000 0000 6fa3 62bf
00000340: 9caa de3e f601 fd3d 5410 5d3f ac00 a0bb
00000350: 5d2b 833e 1c0b 353f 0000 0000 0000 0000
00000360: 0000 0080 0000 0000 3bbd a43f 9bdb 263f
00000370: 2064 b3bf c8e7 753e e83b 8abe 4ab2 96bf
00000380: 5089 87be 3570 893f fd74 013f 0000 0000
00000390: 0000 0080 0000 0000 76f6 c03f b3cf 983f
000003a0: 649d 0a40 5d7c 95be c0a4 df3e 2ac9 82be
000003b0: 2286 a63e 59e3 663f 3114 cfbd 0000 0080
000003c0: 0000 0080 8c7e 253f 6d9d 853f 00a2 dbbe
000003d0: c824 373f 8dff 4a3f d7d7 763f 7469 933e
000003e0: 9b01 fbbe 822d 8e3e 5aa2 ebbf 548b 97be
000003f0: 0000 0000 641d b9bf 67d0 da3f 6726 9fbd

_bins.0._pooling_modules._pooling_module._pooling_modules.1._rocket_kernels.bias f4 [30]
-0.094658375 -0.6962408 0.67635655 0.8549534 -0.45762694 -0.42910492 -0.6970575 -0.779055
0.7389426 0.3896588 0.9552603 0.6319672 0.20525646 -0.70961285 -0.3979833 -0.6991861
-0.8761116 -0.6868738 0.97649896 -0.24342561 0.8202472 0.4835366 -0.72985756 0.43233812
0.80755913 0.62093186 0.8399304 0.1926049 0.61842287 -0.5931238
00000000: 40dc c1bd d63c 32bf b425 2d3f 3ade 5a3f
00000010: 144e eabe a4b3 dbbe 5c72 32bf 2670 47bf
00000020: 582b 3d3f 5c81 c73e f08b 743f 9ac8 213f
00000030: c02e 523e 30a9 35bf 78c4 cbbe dcfd 32bf
00000040: da48 60bf f6d6 2fbf d6fb 793f 9044 79be
00000050: b8fb 513f 1c92 f73e f2d7 3abf 6c5b dd3e
00000060: 32bc 4e3f 64f5 1e3f ae05 573f 383a 453e
00000070: f650 1e3f f6d6 17bf

_bins.0._pooling_modules._pooling_module._pooling_modules.1._fc_modules.0._fc_block._layers.0.weight f4 [15, 60]
0.12877628 0.08102434 0.10584696 -0.11682764 0.08282905 -0.04957769 -0.074340776 -0.02874164
0.08554934 0.066070735 -0.10706614 0.06221215 0.13071978 -0.09143948 -0.030402796 0.11636075
-0.040775508 0.09503228 0.08723957 -0.11113209 -0.091658145 -0.116741754 0.11830424 0.027475331
0.056665413 -0.06725193 -0.12149301 -0.065347195 -0.1222914 -0.11788524 0.09768159 0.06371641
-0.056924704 -0.046738 0.048009522 0.007582052 -0.066520005 0.01808711 0.06960836 0.053129535
-0.0012597606 0.02269827 -0.024831237 0.13114771 -0.06309191 -0.026593754 0.08325696 0.050143447
-0.12714475 -0.10371472 -0.088142626 0.13188808 -0.09749892 -0.0025230963 0.07463707 0.1183805
-0.016716827 0.11588841 0.011734258 0.057114214 0.029709943 -0.015240832 0.057898764 -0.0885089
-0.06361301 0.10969591 0.018270064 0.13222927 0.0063611576 0.1137943 0.091885656 -0.13244839
0.10812257 -0.008152701 -0.10658733 0.039888483 -0.04060039 0.09962054 0.106819615 -0.027568609
0.08681332 0.106573895 -0.09858164 -0.08994756 -0.040837258 -0.104251765 0.08263871 0.041883823
0.086636506 0.13499786 -0.09364808 0.040791668 -0.077097096 -0.1240074 -0.10026749 -0.030344745
0.1009527 -0.105376855 -0.005700695 -0.045596287 -0.054187384 -0.007626423 -0.062322415 0.070997514
-0.007139838 0.09189871 0.09461873 0.07848835 0.11458891 0.07875133 0.08890994 -0.016270444
-0.014790042 -0.07170436 -0.088255145 0.06579741 0.034278333 0.112082504 -0.086871624 -0.10887785
0.017985474 0.11431361 -0.052690193 -0.06752404 0.07054784 0.12301291 -0.014715361 -0.038418982
0.09630284 -0.033900443 0.049024716 -0.07083518 0.1121986 0.10241611 0.061820053 0.07676679
-0.04601106 -0.0691312 -0.07710695 -0.07319874 0.032270014 -0.09866196 0.094597764 0.05497791
0.029951563 0.03515358 -0.07600202 0.08417451 -0.11488146 -0.08765032 -0.11726877 -0.072935835
-0.121384956 0.07794588 -0.045698415 0.043527197 0.065035455 0.12697597 -0.0073046554 0.044300016
-0.03603537 -0.060536034 0.012189595 -0.082947694 -0.034657348 -0.025201946 -0.027428335 -0.011479923
-0.0318312 0.084723815 -0.07228089 -0.09271531 -0.123755544 -0.081077054 0.11663796 0.009252503
-0.03482008 0.10655671 0.10425235 0.023402426 -0.10552511 0.03666711 -0.11009374 -0.048703235
-0.08101871 -0.09304912 0.10068504 -0.10333366 0.12677452 -0.0518283 -0.07061419 -0.07069195
0.10462407 0.0917449 -0.06549584 -0.09284438 0.05450298 0.027690886 0.08891972 0.045672175
-0.061854035 0.06497787 0.0578371 -0.06053297 -0.003602826 -0.12304361 -0.124105096 0.119532496
0.00784093 -0.059283268 0.07293858 0.017536892 0.11649503 -0.085186206 -0.05916732 0.10846496
0.013116756 0.011072445 -0.092310905 0.053126972 0.057586722 0.11559397 -0.032025546 0.033495523
0.06312479 -0.05447317 -0.098983705 0.1027779 0.015000351 0.028369531 -0.056826957 0.08616502
-0.08683157 -0.113733724 0.032870665 -0.09100417 0.116877206 -0.036637682 0.0070984773 -0.03625886
0.08154863 0.082694374 -0.10149463 -0.10042252 0.07840801 0.0626076 0.12272198 -0.11288872
0.07649777 0.069970876 -0.06412224 0.038669128 -0.049121317 -0.071454644 -0.024305087 0.09696714
00000000: eedd 033e 17f0 a53d 4ac6 d83d 5443 efbd
00000010: 47a2 a93d fa11 4bbd fa3f 98bd 9673 ebbc
00000020: 7e34 af3d 1850 873d 7e45 dbbd 2bd2 7e3d
00000030: 68db 053e 9f44 bbbd 490f f9bc 8b4e ee3d
00000040: 3804 27bd 49a0 c23d a9aa b23d 3999 e3bd
00000050: 44b7 bbbd 4d16 efbd 7e49 f23d f213 e13c
00000060: fe19 683d 61bb 89bd 54d1 f8bd c0d4 85bd
00000070: ea73 fabd d16d f1bd 490d c83d c07d 823d
00000080: e129 69bd 5870 3fbd a2a5 443d dd72 f83b
00000090: a43b 88bd 6b2b 943c d48e 8e3d 5b9e 593d
000000a0: 8d1e a5ba b9f1 b93c e16a cbbc 964b 063e
000000b0: 5536 81bd 25db d9bc a082 aa3d 3763 4d3d
000000c0: 3c32 02be 6268 d4bd 1f84 b4bd ab0d 073e
000000d0: 84ad c7bd 885a 25bb 52db 983d 7a71 f23d
000000e0: baf1 88bc e756 ed3d 0c41 403c 98f0 693d
000000f0: 4462 f33c afb4 79bc 4127 6d3d 2744 b5bd
00000100: 8a47 82bd 40a8 e03d 1aab 953c 1c67 073e
00000110: 4271 d03b fc0c e93d 8c2e bc3d 8da0 07be
00000120: 5e6f dd3d e892 05bc 754a dabd 1b62 233d
00000130: 984c 26bd db05 cc3d 3ec4 da3d 90d7 e1bc
00000140: 2fcb b13d 6a43 da3d 2ce5 c9bd 6d36 b8bd
00000150: f844 27bd f381 d5bd 7c3e a93d 5f8e 2b3d
00000160: 7b6e b13d e13c 0a3e 91ca bfbd 2a15 273d
00000170: 15e5 9dbd 97f7 fdbd 0b59 cdbd 8b95 f8bc
00000180: 4ac0 ce3d d2cf d7bd e5cc babb 2cc3 3abd
00000190: 97f3 5dbd 13e7 f9bb ca45 7fbd 2567 913d
000001a0: 4df5 e9bb 6435 bc3d 77c7 c13d 80be a03d
000001b0: 97ad ea3d 6148 a13d 6a16 b63d 9849 85bc
000001c0: ef51 72bc bcd9 92bd 1dbf b4bd cbc0 863d
000001d0: 7067 0c3d 838b e53d c0e9 b1bd 5afb debd
000001e0: 4656 933c 411d ea3d acd1 57bd 0b4a 8abd
000001f0: 637b 903d 31ee fb3d b318 71bc 395d 1dbd
00000200: 6c3a c53d 31db 0abd 24ce 483d 0912 91bd
00000210: 61c8 e53d 8abf d13d 0637 7d3d e837 9d3d
00000220: 1876 3cbd a994 8dbd 40ea 9dbd 39e9 95bd
00000230: 902d 043d 480f cabd 79bc c13d 8430 613d
00000240: fb5c f53c 33fd 0f3d f2a6 9bbd af63 ac3d
00000250: f946 ebbd 0382 b3bd 9c2a f0bd 625f 95bd
00000260: ad98 f8bd 17a2 9f3d 432e 3bbd 9349 323d
00000270: 4f31 853d fd05 023e e45b efbb ef73 353d
00000280: d399 13bd a2f4 77bd deb6 473c 7be0 a9bd
00000290: ddf4 0dbd 5074 cebc 63b1 e0bc 4916 3cbc
000002a0: 6f61 02bd ae83 ad3d 0108 94bd 86e1 bdbd
000002b0: 8c73 fdbd ba0b a6bd e2df ee3d cf97 173c
000002c0: 809f 0ebd 683a da3d 4282 d53d 72b6 bf3c
000002d0: 8d1d d8bd 4030 163d d478 e1bd 0b7d 47bd
000002e0: 23ed a5bd 8990 bebd f533 ce3d 99a0 d3bd
000002f0: 2ed1 013e e949 54bd 2c9e 90bd f1c6 90bd
00000300: 2545 d63d c0e4 bb3d af22 86bd 3225 bebd
00000310: 843e 5f3d ffd7 e23c 8b1b b63d bf12 3b3d
00000320: a85a 7dbd 1e13 853d 98e6 6c3d 6bf1 77bd
00000330: 641d 6cbb 4afe fbbd d02a febd 74cd f43d
00000340: 3e77 003c 03d3 72bd d260 953d 87a9 8f3c
00000350: f294 ee3d 1b76 aebd 6f59 72bd e022 de3d
00000360: aae7 563c 3369 353c 800d bdbd ab9b 593d
00000370: 0ee0 6b3d 88bc ec3d 382d 03bd 9a32 093d
00000380: 9247 813d 421f 5fbd f8b7 cabd 387d d23d
00000390: 08c4 753c 3867 e83c 62c3 68bd 4977 b03d
000003a0: c0d4 b1bd 3aed e8bd 64a3 063d 6560 babd
000003b0: 515d ef3d 6511 16bd 589a e83b 2c84 14bd
000003c0: f802 a73d ab5b a93d 6bdc cfbd 52aa cdbd
000003d0: 6194 a03d 6a38 803d a955 fb3d 3432 e7bd
000003e0: ddaa 9c3d e44c 8f3d 8552 83bd 8563 1e3d
000003f0: 6f33 49bd d056 92bd 761b c7bc b596 c63d

_bins.0._pooling_modules._pooling_module._pooling_modules.1._fc_modules.0._fc_block._layers.0.bias f4 [15]
-0.05889227 0.09146674 -0.07635448 0.11371999 0.058724124 -0.032788314 0.10622888 -0.037567414
-0.062418796 -0.024053508 -0.003403959 -0.08665302 -0.07691439 -0.028769162 -0.1266537
00000000: 0539 71bd ea52 bb3d bd5f 9cbd 07e6 e83d
00000010: b588 703d 0a4d 06bd 878e d93d 4ae0 19bd
00000020: daaa 7fbd dd0b c5bc f514 5fbb 2377 b1bd
00000030: 4b85 9dbd 4ead ebbc 82b1 01be

_bins.0._pooling_modules._pooling_module._pooling_modules.1._fc_modules.0._fc_block._layers.1.weight f4 [1, 15]
0.11707636 -0.05988252 0.18675987 0.15524907 0.20330562 0.10934118 0.15332049 -0.16379389
-0.24781415 -0.16737081 -0.08695474 -0.12320322 -0.123442195 0.21589248 0.101505496
00000000: bbc5 ef3d 6047 75bd fb3d 3f3e 9df9 1e3e
00000010: 592f 503e 45ee df3d 0c00 1d3e 96b9 27be
00000020: fec2 7dbe 4163 2bbe 5415 b2bd f851 fcbd
00000030: 43cf fcbd eb12 5d3e 1de2 cf3d

_bins.0._pooling_modules._pooling_module._pooling_modules.2._rocket_kernels.weight f4 [30, 1, 1, 12]
0.0 -0.0 0.0 -1.4477044 0.68815655 0.8499594 -0.12639478 1.324125
0.22051522 -0.56653905 0.0 -0.0 -0.0 -0.0 -0.3220513 -0.22016713
-0.68931514 -1.1051241 -1.790945 2.8753316 0.5448575 -0.3367667 -0.82006973 -0.0
0.0 -0.0 0.7527256 -1.2029942 -0.11643519 0.37487572 0.18268755 1.6041737
0.5782202 -0.6585939 -0.88756114 -0.0 -0.0 -0.0 -0.0 -0.9796657
0.8527425 2.230054 0.14743467 0.24017218 0.67543745 -0.48510215 -0.0 0.0
0.0 0.0 0.0 -0.5737593 1.9918426 -0.4091131 1.5494783 -1.1257461
-0.5167871 -0.8635935 -0.0 0.0 0.0 -0.0 0.0 -0.7735542
0.24115726 -2.5762322 -1.1768978 0.7461352 -0.3216268 -1.1412644 -0.0 0.0
0.0 -0.6527615 0.6313022 -1.370181 -0.38610438 0.550309 0.33004516 -0.2908248
-1.1910691 -0.7851736 -0.33046323 0.75418323 0.0 0.0 0.0 0.67629385
0.12582827 -0.3857594 0.36143872 0.83759034 -0.7015039 1.6969438 -0.0 0.0
-0.0 0.0 -0.0 -0.11462102 -0.20368049 -1.4768217 -2.7014618 -0.20995334
1.2940283 0.32875106 0.0 -0.0 0.0 -0.6186355 0.8711277 0.648614
-1.5786937 0.31756485 0.94588006 -1.8418245 -1.2719129 0.30534643 -1.5365589 -0.90784746
-0.0 0.0 -1.4910456 0.70245826 0.07596682 -0.23903424 0.12654872 -0.84874064
0.22627908 2.386421 -0.6607147 0.0 0.0 0.3144862 -0.9907804 0.2820518
0.08172103 0.89626014 -0.064796664 -1.6313653 -0.99332744 -0.57425123 0.33179048 0.3245386
0.0 -0.0 1.9763674 0.72395635 -0.15714157 -0.8181762 0.1551053 -1.3054587
0.32425222 0.38111317 -0.2529566 -0.0 0.0 0.0 0.0 -0.40026474
0.13616449 0.78092664 -0.2875383 -0.7560033 -0.057795517 -0.17513835 0.0 -0.0
-0.0 0.2715833 0.0031130873 -0.80183506 0.22968987 0.2556584 -1.1428151 -0.13629788
0.9403356 -0.030047007 0.504577 0.6151243 0.0 0.0 -0.0 0.3102092
0.92261827 1.3462553 -1.306708 -0.37495178 -0.93045926 0.85543084 0.0 0.0
0.0 -0.9970121 -1.7366463 1.2504966 2.088498 -1.226674 0.1229716 0.67334664
-0.23760954 0.08243351 -0.68856853 -1.2552351 0.0 -0.0 -0.18496606 -0.06491951
0.14232339 -0.6188899 0.78569007 1.4077277 -0.6067141 -0.5698747 -0.83451915 0.0
0.0 -0.0 0.19604853 2.315342 -1.3854349 -1.4923408 1.8300775 -0.08241045
0.19426194 -1.5460465 1.5085917 0.0 -0.0 -0.4805855 -1.3111264 1.941131
-0.53510064 0.10247743 -0.38051623 -1.106211 0.20191109 -0.29034352 -1.1243871 0.9711419
-0.0 -0.0 -0.0 0.9575258 0.25122094 0.76265085 1.647688 0.95070344
0.011348799 0.08937546 -0.0 0.0 0.0 0.0 -1.890228 1.681334
00000000: 0000 0000 0000 0080 0000 0000 614e b9bf
00000010: 072b 303f f096 593f a26d 01be ee7c a93f
00000020: bece 613e b408 11bf 0000 0000 0000 0080
00000030: 0000 0080 0000 0080 e8e3 a4be 7e73 61be
00000040: f576 30bf b574 8dbf b03d e5bf 6f05 3840
00000050: c87b 0b3f af6c acbe 17f0 51bf 0000 0080
00000060: 0000 0000 0000 0080 a0b2 403f b7fb 99bf
00000070: 9375 eebd b6ef bf3e 7212 3b3e 9055 cd3f
00000080: 3d06 143f 9c99 28bf 3537 63bf 0000 0080
00000090: 0000 0080 0000 0080 0000 0080 5fcb 7abf
000000a0: 554d 5a3f 34b9 0e40 1df9 163e b2ef 753e
000000b0: 78e9 2c3f 4f5f f8be 0000 0080 0000 0000
000000c0: 0000 0000 0000 0000 0000 0000 e4e1 12bf
000000d0: b3f4 fe3f 4677 d1be 4e55 c63f 7318 90bf
000000e0: 294c 04bf 7714 5dbf 0000 0080 0000 0000
000000f0: 0000 0000 0000 0080 0000 0000 a607 46bf
00000100: eef1 763e fde0 24c0 96a4 96bf b702 3f3f
00000110: 45ac a4be f414 92bf 0000 0080 0000 0000
00000120: 0000 0000 611b 27bf 059d 213f 1762 afbf
00000130: 79af c5be 0de1 0c3f aefb a83e fde6 94be
00000140: f474 98bf 2301 49bf 7a32 a9be 2712 413f
00000150: 0000 0000 0000 0000 0000 0000 9821 2d3f
00000160: 20d9 003e 4282 c5be 7f0e b93e 526c 563f
00000170: c295 33bf 7435 d93f 0000 0080 0000 0000
00000180: 0000 0080 0000 0000 0000 0080 6dbe eabd
00000190: 9e91 50be 7e08 bdbf c0e4 2cc0 02fe 56be
000001a0: b8a2 a53f 0f52 a83e 0000 0000 0000 0080
000001b0: 0000 0000 e55e 1ebf 3a02 5f3f 910b 263f
000001c0: a312 cabf dc97 a23e 3225 723f e8c0 ebbf
000001d0: 0bce a2bf 5e56 9c3e f6ad c4bf b168 68bf
000001e0: 0000 0080 0000 0000 95da bebf 4ed4 333f
000001f0: 7e94 9b3d 64c5 74be fd95 013e 1147 59bf
00000200: b4b5 673e 1fbb 1840 9924 29bf 0000 0000
00000210: 0000 0000 5604 a13e c9a3 7dbf 1869 903e
00000220: 5b5d a73d 4e71 653f 1db4 84bd 94d0 d0bf
00000230: b54a 7ebf 2102 13bf 71e0 a93e ec29 a63e
00000240: 0000 0000 0000 0080 9bf9 fc3f 3455 393f
00000250: b8e9 20be ff73 51bf ecd3 1e3e 4519 a7bf
00000260: 6304 a63e 4421 c33e 8783 81be 0000 0080
00000270: 0000 0000 0000 0000 0000 0000 80ef ccbe
00000280: b46e 0b3e cfea 473f 3838 93be 6f89 41bf
00000290: feba 6cbd 7857 33be 0000 0000 0000 0080
000002a0: 0000 0080 f70c 8b3e f004 4c3b 1045 4dbf
000002b0: d233 6b3e a8e5 823e c447 92bf ac91 0bbe
000002c0: d5b9 703f 2425 f6bc f52b 013f c978 1d3f
000002d0: 0000 0000 0000 0000 0000 0080 bed3 9e3e
000002e0: b630 6c3f 1852 ac3f 3542 a7bf aef9 bfbe
000002f0: 9432 6ebf 84fd 5a3f 0000 0000 0000 0000
00000300: 0000 0000 2f3c 7fbf 6d4a debf 4610 a03f
00000310: f4a9 0540 a703 9dbf 89d8 fb3d 7260 2c3f
00000320: ea4f 73be e6d2 a83d 0746 30bf 8bab a0bf
00000330: 0000 0000 0000 0080 be67 3dbe 85f4 84bd
00000340: 39bd 113e 926f 1ebf fc22 493f 6c30 b43f
00000350: 9e51 1bbf 4fe3 11bf 0ca3 55bf 0000 0000
00000360: 0000 0000 0000 0080 f2c0 483e 902e 1440
00000370: ee55 b1bf 0605 bfbf fb3f ea3f cfc6 a8bd
00000380: 9aec 463e dae4 c5bf 8819 c13f 0000 0000
00000390: 0000 0080 4d0f f6be fdd2 a7bf fb76 f83f
000003a0: 5bfc 08bf b0df d13d 06d3 c2be 5298 8dbf
000003b0: c8c1 4e3e e8a7 94be ebeb 8fbf c19c 783f
000003c0: 0000 0080 0000 0080 0000 0080 6920 753f
000003d0: 08a0 803e 163d 433f 71e7 d23f 4d61 733f
000003e0: 50f0 393c 7b0a b73d 0000 0080 0000 0000
000003f0: 0000 0000 0000 0000 fef2 f1bf f435 d73f

_bins.0._pooling_modules._pooling_module._pooling_modules.2._rocket_kernels.bias f4 [30]
-0.4996034 0.27323675 -0.89310694 -0.7564819 -0.4560802 0.2716143 -0.69584596 -0.024446964
-0.10594845 -0.36389506 0.97870433 0.8793771 -0.9452356 0.97809815 -0.60531557 -0.32092643
0.50906587 -0.26487613 -0.5412408 -0.8524561 -0.2836268 0.98788893 -0.47203445 0.03636992
0.32163966 0.60404706 -0.42105162 -0.39951777 -0.48344827 0.06703889
00000000: 04cc ffbe b0e5 8b3e a8a2 64bf cca8 41bf
00000010: 5883 e9be 0811 8b3e f622 32bf 0045 c8bc
00000020: 80fb d8bd 7450 babe 5e8c 7a3f dc1e 613f
00000030: f6fa 71bf a464 7a3f f6f5 1abf 7850 a4be
00000040: 2452 023f d89d 87be c28e 0abf 903a 5abf
00000050: 8837 91be 4ae6 7c3f 80ae f1be a0f8 143d
00000060: f4ad a43e d4a2 1a3f 1494 d7be 988d ccbe
00000070: 8886 f7be b04b 893d

_bins.0._pooling_modules._pooling_module._pooling_modules.2._fc_modules.0._fc_block._layers.0.weight f4 [15, 60]
0.0032002155 0.0054774354 0.062704846 0.11785413 -0.11067459 0.10618505 -0.085311346 0.06036244
0.08956577 0.10468109 -0.077952586 0.03694504 -0.07739609 0.03826604 0.080405906 -0.097067066
0.03848239 -0.10404912 0.06282196 0.084194586 -0.025577275 0.03203259 -0.04182547 -0.10231875
0.09222326 -0.030488165 -0.053335976 0.0040314207 -0.06553578 -0.052135922 0.07127105 -0.039446242
-0.11881821 -0.06468659 -0.039122418 -0.06661067 -0.10644145 0.012036151 -0.03721787 0.032403447
-0.01443386 0.10686125 0.080084905 0.055408143 -0.07754888 -0.047097392 -0.081634074 0.09278221
0.009812931 0.092392325 -0.13627264 -0.015566894 -0.06809682 -0.040584024 0.09077844 0.07412458
-0.045855533 0.040296514 -0.11967106 -0.075223394 -0.09181181 -0.0037778858 -0.061237887 -0.107868314
-0.09143929 -0.0491081 -0.03897628 0.07804123 0.0113750715 -0.007115283 -0.059296936 -0.03794268
0.046729766 -0.12008913 0.009838825 0.1053479 -0.054657694 -0.12617837 0.0154020265 0.08049621
0.002339227 -0.078731485 0.098557636 -0.06394702 0.022112926 -0.01168116 -0.12087472 -0.108944476
0.022174885 0.095013 -0.05108086 -0.086706266 0.0765832 0.01991507 -0.10635852 0.029151537
-0.083997615 0.054256048 0.0872297 -0.069284484 0.07997243 -0.07827881 -0.004763575 -0.073745236
0.017730787 0.030934928 -0.013036283 0.07106414 -0.055073343 0.01778673 -0.017907647 -0.0273241
-0.02015152 0.0451668 -0.11181047 0.04351318 0.0576951 -0.07685509 -0.030973418 0.00080590503
0.1024008 0.06977684 0.09537947 -0.12163792 0.12432905 0.1253515 0.016196666 -0.0055210944
0.054976787 0.11859816 0.11012286 -0.08159057 0.02083252 0.038971186 0.04606791 -0.016561251
0.037768852 0.07179311 0.10590401 -0.123715825 0.11893577 0.1251244 0.08675715 -0.11403579
-0.11477292 -0.10835343 0.025657948 0.02377469 -0.06709651 0.0393495 -0.04291588 -0.035456914
0.049201254 -0.02928175 0.0042907065 0.10904934 0.08894147 -0.10303219 0.013508197 -0.007697035
-0.090577304 0.08800994 -0.06167031 -0.05984115 0.017326403 -0.10406897 0.118906744 -0.034950726
0.10777534 0.079333924 -0.09900352 -0.09230647 -0.0200252 0.008136507 0.11111201 -0.03690219
0.004488343 0.12698275 -0.08352803 -0.10892133 0.005355642 -0.08040565 0.09969797 0.12283811
0.018250985 -0.09295561 0.020186376 0.12146096 -0.12179756 -0.049727812 0.04434305 -0.04674544
0.109291494 0.050267916 0.009620741 0.058153067 -0.1077164 0.117404155 -0.05751773 0.011416146
0.11683362 0.06704841 0.0021686486 -0.006093256 -0.1093623 -0.09501145 0.019157536 -0.09999712
-0.054594066 0.021501552 -0.111644246 -0.067413 -0.097984366 0.05828462 -0.014363919 0.014147645
-0.10324422 -0.1068842 0.033550963 0.05795341 0.049366217 -0.06405817 -0.0510858 0.11189091
0.11178877 -0.11483275 0.031078765 0.09804274 -0.102751225 0.0055160755 0.057993155 -0.04951966
-0.053331744 0.09331931 0.009778267 0.05465398 -0.06262415 -0.0058634677 0.12282061 0.10174244
-0.09842156 0.020112352 0.102514654 -0.12755066 0.013402176 0.10253502 -0.046393175 -0.033806704
-0.031935807 -0.007348793 -0.121802285 0.057555217 -0.018588834 -0.09245354 -0.052864823 -0.11724812
00000000: b5ba 513b 0f7c b33b 666b 803d 825d f13d
00000010: 5ca9 e2bd 8c77 d93d b7b7 aebd 9b3e 773d
00000020: 426e b73d 0a63 d63d 9ba5 9fbd af53 173d
00000030: d781 9ebd dabc 1c3d daab a43d 19cb c6bd
00000040: b69f 1d3d b417 d5bd cda8 803d 366e ac3d
00000050: 6f87 d1bc 9b34 033d 2f51 2bbd 7e8c d1bd
00000060: 8cdf bc3d 51c2 f9bc d376 5abd 021a 843b
00000070: 9f37 86bd 7a8c 55bd 8ef6 913d 6292 21bd
00000080: f656 f3bd 677a 84bd d43e 20bd 2d6b 88bd
00000090: fafd d9bd 4733 453c c471 18bd 7ab9 043d
000000a0: ff7b 6cbc 12da da3d 8e03 a43d a6f3 623d
000000b0: f2d1 9ebd 32e9 40bd c42f a7bd 9904 be3d
000000c0: 6ac6 203c 3038 bd3d 0e8b 0bbe 490c 7fbc
000000d0: 5876 8bbd 6f3b 26bd 0cea b93d a1ce 973d
000000e0: 03d3 3bbd f50d 253d 1a16 f5bd b90e 9abd
000000f0: d507 bcbd 6896 77bb 94d4 7abd 10ea dcbd
00000100: 8644 bbbd 9325 49bd 97a5 1fbd 15d4 9f3d
00000110: 825e 3a3c 5227 e9bb 58e1 72bd c969 1bbd
00000120: b667 3f3d 4af1 f5bd 0633 213c a4c0 d73d
00000130: bfe0 5fbd e734 01be c858 7c3c 32db a43d
00000140: b74d 193b f93d a1bd 96d8 c93d a8f6 82bd
00000150: 2b26 b53c 5662 3fbc 2a8d f7bd 481e dfbd
00000160: 1ba8 b53c 2d96 c23d 2a3a 51bd 0e93 b1bd
00000170: a7d7 9c3d ee24 a33c 7fd2 d9bd 34cf ee3c
00000180: f106 acbd 973b 5e3d 7ca5 b23d 06e5 8dbd
00000190: 96c8 a33d a450 a0bd c317 9cbb be07 97bd
000001a0: 2840 913c 3f6b fd3c 2296 55bc 138a 913d
000001b0: 9694 61bd 7ab5 913c 0fb3 92bc cad6 dfbc
000001c0: cd14 a5bc d300 393d e3fc e4bd e03a 323d
000001d0: b251 6c3d 3466 9dbd f7bb fdbc 5f43 533a
000001e0: 83b7 d13d 29e7 8e3d 5056 c33d 4d1d f9bd
000001f0: 3ba0 fe3d 255c 003e dfae 843c 4cea b4bb
00000200: 572f 613d 98e3 f23d 1888 e13d f518 a7bd
00000210: f6a8 aa3c 40a0 1f3d b4b1 3c3d 76ab 87bc
00000220: 83b3 1a3d 4408 933d 34e4 d83d b95e fdbd
00000230: 9994 f33d 9c20 003e bcad b13d 998b e9bd
00000240: 110e ebbd 67e8 ddbd 9e30 d23c 24c3 c23c
00000250: e569 89bd f12c 213d 90c8 2fbd 453b 11bd
00000260: 4187 493d 48e0 efbc 0e99 8c3b 4355 df3d
00000270: f226 b63d 8a02 d3bd 7c51 5d3c 6937 fcbb
00000280: 9880 b9bd 8e3e b43d 029a 7cbd fe1b 75bd
00000290: 1af0 8d3c 1d22 d5bd 6185 f33d 7e28 0fbd
000002a0: 51b9 dc3d d379 a23d 5cc2 cabd 2d0b bdbd
000002b0: e30b a4bc fc4e 053c b28e e33d c026 17bd
000002c0: f312 933b c407 023e be10 abbd 2512 dfbd
000002d0: 627e af3b b8ab a4bd 732e cc3d 8c92 fb3d
000002e0: 1783 953c 835f bebd e65d a53c 86c0 f83d
000002f0: 0071 f9bd 64af 4bbd 0fa1 353d 2678 3fbd
00000300: 38d4 df3d bbe5 4d3d 50a0 1d3c e931 6e3d
00000310: 6a9a dcbd 9771 f03d b697 6bbd c90a 3b3c
00000320: 7746 ef3d ad50 893d e31f 0e3b f0a9 c7bb
00000330: 57f9 dfbd 5d95 c2bd 44f0 9c3c 4acb ccbd
00000340: 079e 5fbd 0624 b03c bda5 e4bd d40f 8abd
00000350: 07ac c8bd dbbb 6e3d a556 6bbc 86cb 673c
00000360: b571 d3bd 1ae6 dabd bc6c 093d 8e60 6d3d
00000370: 3b34 4a3d ee30 83bd 583f 51bd 1027 e53d
00000380: 83f1 e43d 6f2d ebbd e598 fe3c a2ca c83d
00000390: 3c6f d2bd 32c0 b43b 3b8a 6d3d 21d5 4abd
000003a0: 6372 5abd 321e bf3d 0635 203c dadc 5f3d
000003b0: 1741 80bd 5522 c0bb 5f89 fb3d 575e d03d
000003c0: 3e91 c9bd a9c2 a43c 34f3 d13d a49c 02be
000003d0: cd94 5b3c e1fd d13d c506 3ebd e678 0abd
000003e0: 1fcf 02bd 25ce f0bb 7a73 f9bd 05bf 6b3d
000003f0: 9c47 98bc 4858 bdbd c988 58bd c81f f0bd

_bins.0._pooling_modules._pooling_module._pooling_modules.2._fc_modules.0._fc_block._layers.0.bias f4 [15]
0.08176741 0.014479913 0.08682555 0.03548898 -0.078885324 -0.096936345 -0.07884406 -0.09586817
0.04506994 -0.08190786 -0.013426262 0.07408248 -0.1070222 0.027097903 0.052551668
00000000: ac75 a73d 283d 6d3c 98d1 b13d e55c 113d
00000010: a18e a1bd 9086 c6bd ff78 a1bd 8856 c4bd
00000020: 429b 383d 4fbf a7bd d3f9 5bbc 8eb8 973d
00000030: 752e dbbd 6cfc dd3c 6b40 573d

_bins.0._pooling_modules._pooling_module._pooling_modules.2._fc_modules.0._fc_block._layers.1.weight f4 [1, 15]
0.068664975 0.063512966 -0.24878809 0.24130133 0.08427351 0.24702488 0.09805901 0.00030695277
0.22844052 -0.10093771 -0.007257942 0.14850758 4.3460946e-05 0.20508781 -0.23536742
00000000: 39a0 8c3d 1613 823d 4ec2 7ebe b217 773e
00000010: 9797 ac3d 17f4 7c3e 2ad3 c83d 81ee a039
00000020: 50ec 693e 6eb8 cebd 08d4 edbb 5f12 183e
00000030: d649 3638 8a02 523e 2804 71be

_bins.0._pooling_modules._pooling_module._pooling_modules.3._rocket_kernels.weight f4 [30, 1, 1, 12]
-0.0 -0.08938894 1.2864791 2.6665716 0.61176586 -0.6910591 0.12169413 1.374005
1.5276028 -0.19259687 -0.9606425 0.18867011 -0.0 0.0 -0.31075776 0.92465794
-0.17259954 -0.4693691 -1.3510878 -1.031665 0.056728076 -0.8559141 0.7329583 0.0
0.0 -0.0 -0.5989152 1.6267534 0.19915205 -0.5039535 2.1690857 -0.28367865
-0.9498376 -0.83078486 0.77536875 0.0 0.0 -0.809521 0.9872417 -1.2280691
0.4104256 -0.2629424 0.66570497 -0.9144473 0.8362167 0.6644815 -1.509978 0.9363856
0.0 -0.0 0.0 -1.1430192 -0.12961659 -0.026002066 0.74455726 1.2845765
-0.672167 -0.75137967 -0.0 -0.0 -0.0 -0.6153056 2.5515912 -0.34215644
-0.22201267 0.38792002 0.25038013 0.3528473 0.16716202 0.26015493 0.5018972 -2.0667272
-0.0 -0.0 1.9689865 -0.55244154 -0.44651565 0.1482381 1.1701851 -0.6345377
-0.60225254 1.3430023 -2.2657301 -0.0 0.0 0.0 -0.6427292 0.073125735
0.19869107 -1.131696 1.6167028 1.4860649 -0.63238776 0.44351223 0.7282594 -0.0
0.0 -0.0 -0.0 0.6878026 -0.8562328 0.25981894 1.6683509 -0.24712479
0.6403516 0.14638448 -0.0 0.0 -0.0 -0.0 0.41987103 -1.33446
0.16490147 -0.5368503 -0.67557627 -0.39688835 -0.32697853 0.5548739 -0.30316564 0.0
-0.0 -0.0 -1.7166101 -0.015820445 0.847892 -1.0817312 0.27825022 1.1421312
-1.7505187 -0.79266953 -0.7818997 -0.0 -0.0 -0.0 0.0 0.23319043
1.8758723 0.22846533 -1.0957786 0.502281 0.89051723 -0.4113797 -0.0 -0.0
0.0 -2.11139 1.0678135 -0.041061904 0.22600113 -0.9829826 -0.7005342 -1.0133612
-1.4914811 0.4462023 0.9752249 -0.12395634 0.0 -0.0 0.6534309 0.45440954
-0.7546199 -0.07504803 0.7345178 1.1798748 -0.4761915 0.3262423 0.5183152 0.0
-0.0 -0.0 0.30221418 2.173068 -0.10906249 -0.21965669 1.6237484 -0.7782564
1.0994219 -1.5786071 1.5245796 -0.0 0.0 0.0 1.439908 -0.64503056
-0.37500235 -0.35666057 0.3151368 0.1378419 1.1538205 2.3030088 -0.73543704 0.0
0.0 -0.0 0.059488717 0.6344193 2.364414 -0.13972096 0.1706495 1.0817249
0.47893378 -0.56512815 1.4881943 0.0 0.0 -0.0 -0.71378744 -0.8793112
0.9989733 -1.2249825 1.0694798 0.8708442 0.4071874 -0.23404786 0.44765028 0.0
-0.0 0.0 -0.0 1.1028802 -0.2791259 1.0681932 -0.1165645 1.2831624
0.8163548 -0.34990823 -0.0 0.0 -0.0 -0.09034383 -0.21266568 -0.22287527
1.8082114 1.4405856 -0.9086091 0.06654605 -0.16618565 -1.0723563 0.46791145 -1.7032936
0.0 -0.0 -0.0 -0.6345509 1.2630762 0.4163454 0.11359252 0.31436428
0.31750107 -0.41070426 0.0 0.0 -0.0 -0.0 1.491071 1.4667422
00000000: 0000 0080 8c11 b7bd 59ab a43f 1ca9 2a40
00000010: b09c 1c3f 40e9 30bf c63a f93d 65df af3f
00000020: 7d88 c33f 1d38 45be abec 75bf bd32 413e
00000030: 0000 0080 0000 0000 a41b 9fbe 62b6 6c3f
00000040: efbd 30be 2651 f0be 72f0 acbf 990d 84bf
00000050: b35b 683d 301d 5bbf 28a3 3b3f 0000 0000
00000060: 0000 0000 0000 0080 8252 19bf 7539 d03f
00000070: 84ee 4b3e 1903 01bf 4dd2 0a40 543e 91be
00000080: 8f28 73bf 51ae 54bf 917e 463f 0000 0000
00000090: 0000 0000 c53c 4fbf dfbb 7c3f 5e31 9dbf
000000a0: 4e23 d23e 63a0 86be a46b 2a3f 3819 6abf
000000b0: 4c12 563f 761b 2a3f f646 c1bf f7b6 6f3f
000000c0: 0000 0000 0000 0080 0000 0000 744e 92bf
000000d0: 36ba 04be 4902 d5bc 4e9b 3e3f 016d a43f
000000e0: 2313 2cbf 6b5a 40bf 0000 0080 0000 0080
000000f0: 0000 0080 ab84 1dbf 454d 2340 212f afbe
00000100: 4a57 63be 749d c63e d331 803e 67a8 b43e
00000110: 852c 2b3e 0733 853e 567c 003f 4245 04c0
00000120: 0000 0080 0000 0080 c007 fc3f cf6c 0dbf
00000130: b39d e4be bacb 173e a0c8 953f 1071 22bf
00000140: 392d 1abf 80e7 ab3f b901 11c0 0000 0080
00000150: 0000 0000 0000 0000 e789 24bf f2c2 953d
00000160: ac75 4b3e 6adb 90bf 1ef0 ce3f 6037 be3f
00000170: 2ae4 21bf 0914 e33e 356f 3a3f 0000 0080
00000180: 0000 0000 0000 0080 0000 0080 d513 303f
00000190: 1332 5bbf fd06 853e 868c d53f 480e 7dbe
000001a0: 15ee 233f d0e5 153e 0000 0080 0000 0000
000001b0: 0000 0080 0000 0080 56f9 d63e 96cf aabf
000001c0: eedb 283e 056f 09bf 91f2 2cbf f334 cbbe
000001d0: bb69 a7be 370c 0e3f 8738 9bbe 0000 0000
000001e0: 0000 0080 0000 0080 e1b9 dbbf e199 81bc
000001f0: 730f 593f 2b76 8abf d076 8e3e 5b31 923f
00000200: ff10 e0bf 64ec 4abf 942a 48bf 0000 0080
00000210: 0000 0080 0000 0080 0000 0000 79c9 6e3e
00000220: 951c f03f d1f2 693e 7942 8cbf 7d95 003f
00000230: f0f8 633f 5ca0 d2be 0000 0080 0000 0080
00000240: 0000 0000 0421 07c0 1dae 883f 8730 28bd
00000250: d76c 673e bfa4 7bbf 3656 33bf d2b5 81bf
00000260: dae8 bebf a174 e43e 57a8 793f d2dc fdbd
00000270: 0000 0000 0000 0080 3f47 273f 5ea8 e83e
00000280: c52e 41bf c8b2 99bd 5c09 3c3f 2306 973f
00000290: 5fcf f3be 3b09 a73e 4eb0 043f 0000 0000
000002a0: 0000 0080 0000 0080 d1bb 9a3e 8c13 0b40
000002b0: 285c dfbd afed 60be fdd6 cf3f d03b 47bf
000002c0: dbb9 8c3f cc0f cabf 6d25 c33f 0000 0080
000002d0: 0000 0000 0000 0000 e84e b83f b920 25bf
000002e0: 4f00 c0be 379c b6be 9c59 a13e 6d26 0d3e
000002f0: 64b0 933f 7f64 1340 9a45 3cbf 0000 0000
00000300: 0000 0000 0000 0080 71aa 733d 4e69 223f
00000310: 8f52 1740 0313 0fbe bebe 2e3e f675 8a3f
00000320: cf36 f53e 3dac 10bf 277d be3f 0000 0000
00000330: 0000 0000 0000 0080 c6ba 36bf 8a1a 61bf
00000340: b7bc 7f3f 3acc 9cbf b7e4 883f a5ef 5e3f
00000350: de7a d03e 3eaa 6fbe 6b32 e53e 0000 0000
00000360: 0000 0080 0000 0000 0000 0080 2e2b 8d3f
00000370: 97e9 8ebe 8eba 883f 5eb9 eebd aa3e a43f
00000380: a1fc 503f 2c27 b3be 0000 0080 0000 0000
00000390: 0000 0080 3006 b9bd 08c5 59be 6a39 64be
000003a0: 7973 e73f 1c65 b83f 9b9a 68bf 4c49 883d
000003b0: 922c 2abe f942 89bf 1792 ef3e 8605 dabf
000003c0: 0000 0000 0000 0080 0000 0080 ee71 22bf
000003d0: 7bac a13f 392b d53e 32a3 e83d 5bf4 a03e
000003e0: 808f a23e d447 d2be 0000 0000 0000 0000
000003f0: 0000 0080 0000 0080 6adb be3f 35be bb3f

_bins.0._pooling_modules._pooling_module._pooling_modules.3._rocket_kernels.bias f4 [30]
0.95882845 -0.6250565 0.66095126 0.96338546 -0.442572 0.7482251 0.36774373 -0.358783
0.6074352 -0.63924015 -0.3016944 -0.27060115 -0.742659 -0.6885308 -0.17309558 -0.8359945
-0.9710163 -0.5234057 -0.95966303 0.021024108 -0.2671876 0.252756 0.34027016 -0.37600994
-0.8915056 -0.8366364 0.8265581 0.7192035 -0.030368805 -0.7171968
00000000: c875 753f b403 20bf 1a34 293f 6ea0 763f
00000010: cc98 e2be ae8b 3f3f e848 bc3e 68b2 b7be
00000020: e080 1b3f 3ea5 23bf b077 9abe 3c8c 8abe
00000030: e61e 3ebf 8e43 30bf f83f 31be bc03 56bf
00000040: 8694 78bf eafd 05bf 7aac 75bf c03a ac3c
00000050: d0cc 88be 3c69 813e e437 ae3e 6084 c0be
00000060: b639 64bf ce2d 56bf 5099 533f b81d 383f
00000070: 00c8 f8bc 369a 37bf
