test/models/nn_models/region_based_m1/mean/regions_2_bins.pt (torch, 188125 bytes, 168 tensors)

_bins.0._pooling_modules._pooling_module._inception_modules.0._inception_sub_modules.0._input_conv.weight f4 [32, 1, 1, 1]
00000000: 183c 4abf 2098 1fbf 9f7d d6be ee4c 21bf
00000010: 833f 253e 940b 1fbf cae9 43bf 2868 8bbc
00000020: 5b4a 403e 6dd8 d13e b51c 12bf 9af9 833e
00000030: 4933 073f 9784 d53e 7257 05bf f332 b03e
00000040: c758 45bf 6026 483f d40e be3e 22c3 b43e
00000050: 9215 57bf 52c7 553f 7010 2a3f f0cd 33be
00000060: 1356 093f f7ba 14be 6b32 813d 5885 2bbf
00000070: 9eb4 a6bd 5f14 e7be 1b90 a7be 1042 563f
-0.78997946 -0.623415 -0.41892716 -0.6300801 0.16137509 -0.6212704 -0.7652861 -0.017017439
0.18778364 0.40985432 -0.57075053 0.25776368 0.5281263 0.4170272 -0.52086556 0.3441387
-0.7708859 0.78183556 0.37120688 0.35305125 -0.8401729 0.83507264 0.6643133 -0.17559028
0.53646964 -0.14524446 0.063084446 -0.6700034 -0.08139919 -0.4513273 -0.3272713 0.83694553

_bins.0._pooling_modules._pooling_module._inception_modules.0._inception_sub_modules.0._conv_list.0.weight f4 [1, 32, 1, 10]
00000000: 6fee 163d c660 cb3c ea39 1d3d 000e 043d
00000010: 012f 7abc 3cb9 84bc b3c9 33bd 7a77 20bd
00000020: b718 2e3d afc8 6a3d 79c3 41bd 1409 543d
00000030: d6f0 963a 29c7 17bd d00f 5ebd bf3c 9fbc
00000040: f8d2 3f3d da1b 19bc 3e87 6cbd eeba 25bd
00000050: 33b7 0ebc c3f0 cfbc 9811 e73b 4497 0bbd
00000060: 3a1a e6bc 8b75 11bd 82e0 cc3c 6016 99bc
00000070: 6ec2 a03b 49b9 0bbd acc3 893b 091d b5bb
00000080: d437 c5bc 2846 b83c 55b4 9e3c 230c 773a
00000090: dd05 b03c be05 cf3c 64bb 68bd e368 543d
000000a0: 5ec9 74bc 827e 42bd a6ac 87bc ec7b 783c
000000b0: c085 603d 782a 8cbb f7fb 4e3d 9556 ce3c
000000c0: 1d84 413d d0d4 1d3d 06d0 29bd 2a6b 583d
000000d0: bb88 d9bc a21f 1fbd b522 173d 7b40 46bd
000000e0: a70b 913c 29b5 0a3d 306f 40bd 04c3 503d
000000f0: 37f6 ae3c 8914 073d a931 db3c e6f5 a9bc
00000100: 383d b23c a43f 11bb 1083 293d 816c bf3c
00000110: 5dbc d2bc 13aa 35bb c06f 4cbc 7a26 35bc
00000120: 908a 9bbc e48e 163d a546 3cbd c893 e2bc
00000130: 4d9a e5bc f90b 513d 2fb3 19bb 4750 17bd
00000140: 0f40 d1bc 51f3 3b3d b473 04bd 3f48 bf3b
00000150: d150 a7bb f3db 4a3b 4f4d c7bb 2e80 92bc
00000160: 7632 32bc 3cac f5ba 24f7 b33c 7a5d 9f3b
00000170: 939d 433d 7cbb 73bd 8f26 edbb 0af5 afbb
00000180: 3997 483d 36f9 85bc ba1f 8e3c d04c 01bd
00000190: 4ae8 c6bc 3723 e93c e462 cdbc 499c 15bd
000001a0: 97d5 f2bc d9e8 c13b 02fa 163d 808b 563d
000001b0: 55cb 0d3c 858d 8abb 6265 9d3b aafa c7bc
000001c0: 068c 2c3d b622 26bd ac13 0bbd 0aa5 11bd
000001d0: a484 313d 1993 3d3b c152 37bd 4e4f f1bc
000001e0: a54d 0ebc fb7c 053c 78cd 2abd a78c ac3c
000001f0: 8512 23bc 62aa 7c3d 4913 2d3d ba0b 1e3d
00000200: c718 0b3b a66b 083c 21fc 8bbb 1870 35bd
00000210: 1ee2 803d f623 9b3c 075f 243d 8cb0 b8bc
00000220: 0fb2 dabc e4a8 4bbc 391c 723d 52a9 3bbd
00000230: 789d 56bd d8c6 8f3c 865b 14bc a0f0 4c3d
00000240: 4fb2 a4bb 0307 6f3b dd8e 0e3d e65c 943c
00000250: 6ed9 eebc 8ea1 083d af8b 5bbc 7231 f73c
00000260: 9c21 6e3d f350 06bd ef5d 3a3d 44e0 e43a
00000270: 24d6 0bbc d092 87bc 0ace 203c 95b2 fb3c
00000280: 3540 efbc 33cd 1bbd 0a07 443d a64a 03bd
00000290: 1722 86bc 65ad 463c 3dae 113c 6177 77ba
000002a0: d0f1 2bbd 0f3d e03c f925 6a3d 835a 32bd
000002b0: 8309 4d3d fddf 923c e0cd b5bc bcf4 48bd
000002c0: 2fb3 b83c db6e a23c 87d3 3c3c d19d 68bc
000002d0: 0908 7c3d 5990 a83c 66dd a4bc 52ea fc3c
000002e0: b3ee 903c 0c20 1d3d 1333 e03c c0d5 54bc
000002f0: 19c5 523d 78b2 5bbd c83e c33b cd69 3cbd
00000300: 2f3a 54bc 61de 21bc b13d 273d a84e d93c
00000310: 149a 463b c4cf cebc 9c77 023d 25e4 e3bc
00000320: c7a8 78bd 88fe 623d 4823 53bd 5c5a cb3b
00000330: 3488 62bc 814e 6dbc 9af6 8dbc 7f58 053d
00000340: 3857 d8bc c04f f2bc abf3 1fbd bf61 11bd
00000350: 6c57 cbbc 79b9 d23c 75e5 18bd 153d 91bc
00000360: ce56 1ebd f58f c9bb a64d 423d 5812 2cbc
00000370: c4da 80bc dea6 de3c 4f35 643d eec5 df3b
00000380: 222b 003d 5c72 cbbc 0b6f 3dbd c570 633d
00000390: b73c b1bc bd07 cabc 0042 bc3c 1ebb 3abd
000003a0: e473 1dbd 8e3c 16bd f381 43bb 2d2e df3c
000003b0: c331 533d ec0a e43c eb95 423d dd49 033d
000003c0: 2f34 e2bc e014 3d3d 9af9 873c aac6 853b
000003d0: f3c7 d9bb 3f08 263d db41 503d 6b20 633d
000003e0: b04a 2b3d ce1e fc3c 10e4 11bd 634e c1bb
000003f0: 0542 74bd 5512 03bd 8e93 5c3c 949b a1bc
0.03684848 0.024826419 0.03838531 0.032239914 -0.015269996 -0.016201608 -0.043893527 -0.03917644
0.04250404 0.057320293 -0.047305558 0.05176647 0.0011515866 -0.03705517 -0.0542143 -0.019438146
0.046832055 -0.009345019 -0.057746165 -0.040461473 -0.00871067 -0.025383359 0.007051658 -0.034079805
-0.028088678 -0.03551249 0.025009397 -0.018687427 0.0049059903 -0.03411225 0.004204234 -0.005527143
-0.024074472 0.02249439 0.019373098 0.0009424111 0.02148717 0.025271293 -0.056819335 0.05185784
-0.014940588 -0.04748393 -0.016561817 0.015166264 0.054815054 -0.0042775236 0.05053326 0.02518777
0.047245134 0.038533032 -0.041458152 0.052836575 -0.026554456 -0.038848527 0.036898334 -0.048401337
0.017705752 0.033864174 -0.046981037 0.05096723 0.021357639 0.03297857 0.026757078 -0.020747136
0.021757707 -0.0022163177 0.041384757 0.023367168 -0.025724584 -0.002771978 -0.012477815 -0.011056537
-0.01898697 0.036757365 -0.04596581 -0.027658358 -0.028027678 0.05103681 -0.002345275 -0.036941793
-0.02554324 0.04588634 -0.032336906 0.00583747 -0.0051060696 0.0030953854 -0.006082214 -0.017883386
-0.010876289 -0.0018743346 0.021968432 0.004863438 0.047757696 -0.05950497 -0.0072372626 -0.005369787
0.048972342 -0.016354185 0.017349113 -0.031567395 -0.024280686 0.028459175 -0.025071569 -0.036526
-0.029642863 0.00591765 0.03685952 0.05237913 0.008654435 -0.004228296 0.0048033455 -0.024411518
0.042125724 -0.040560447 -0.033954307 -0.035557784 0.043339387 0.0028926788 -0.044756655 -0.02945676
-0.008685504 0.008147473 -0.041699857 0.021063162 -0.009953146 0.061685927 0.04225472 0.038585402
0.0021224485 0.008326447 -0.0042719995 -0.044296354 0.062931284 0.018938046 0.040129688 -0.022545122
-0.026696233 -0.012430403 0.059108946 -0.045815773 -0.052396268 0.01755087 -0.009055024 0.050034165
-0.005026139 0.0036472685 0.034804214 0.018110704 -0.029156413 0.033357196 -0.013400002 0.030174945
0.05813752 -0.032792043 0.04549974 0.0017461856 -0.008534942 -0.016549498 0.009814749 0.030724803
-0.029205421 -0.03803749 0.047858275 -0.032053612 -0.016373677 0.012126301 0.008891639 -0.0009440091
-0.041978657 0.027372865 0.05716512 -0.04354335 0.0500579 0.017929072 -0.022192895 -0.049061522
0.022546379 0.01982825 0.011525041 -0.014197783 0.0615311 0.020576643 -0.020125102 0.030873451
0.017691946 0.03836064 0.027368104 -0.012990415 0.0514575 -0.053636998 0.005958412 -0.045999337
-0.012953325 -0.009879679 0.040830318 0.026526764 0.003030424 -0.025245555 0.03185235 -0.027818749
-0.060707834 0.05541852 -0.05154732 0.00620584 -0.013826419 -0.014484049 -0.017329503 0.0325551
-0.026408777 -0.029579043 -0.03905074 -0.03549361 -0.02482196 0.025723206 -0.037328202 -0.017729321
-0.038657002 -0.006151194 0.047437333 -0.01050242 -0.015729316 0.027179178 0.0557149 0.006829015
0.031291135 -0.024834804 -0.046248477 0.055527467 -0.021635396 -0.024661893 0.02298069 -0.045588605
-0.0384406 -0.036678843 -0.0029832094 0.027243698 0.05156113 0.02783724 0.047506254 0.032052863
-0.027612774 0.046162486 0.016598511 0.0040825205 -0.0066461503 0.040535208 0.050844055 0.055450838
0.041819274 0.030776408 -0.035617888 -0.005899237 -0.059633274 -0.031999905 0.013462914 -0.019727506

_bins.0._pooling_modules._pooling_module._inception_modules.0._inception_sub_modules.0._conv_list.1.weight f4 [1, 32, 1, 5]
00000000: 03c4 a5bd 1c64 6a3d 0557 a0bd 2c4f 4a3d
00000010: 898a 173d 949c 8cbc ccc6 2ebd b4b7 563d
00000020: d1f2 45bd 371b 9abb 9dbb 883d 2e7a b73c
00000030: f2f1 86bc 2e12 933d a186 08bd 6896 8fbd
00000040: 2a66 363d 6585 033d 3b43 903d 047a e33b
00000050: 960e 053d 36c1 013d b10e f9bc ee2c 9d3d
00000060: 7110 8c3d ad0f 763d 6518 793d e4c8 37bd
00000070: 0684 903d 1305 98bd 8b74 56bd 2c4a 3e3c
00000080: 447c e7bb b99b 8f3c 01f7 9bbd f2a8 e5bc
00000090: ea23 77bd e1f0 013d c941 703c 5a01 3ebd
000000a0: 6c4b 513c 9d53 3a3c 32e1 433d 0955 183d
000000b0: d91c 48bd 9ef8 49bd 0a5e 3b3d 9037 493d
000000c0: 6f9f 8c3d a79d 19bd 382f 7abd 7c39 69bd
000000d0: 878d 1ebc 9f74 913c 4471 9e3c e10d 8d3d
000000e0: 50fe a83c 1ec7 ae3d df88 72bd 3574 c63c
000000f0: f4be 733d d9ac 36bc 7ed4 4b3d eb1c 82bd
00000100: cd80 8dbc 992f 87bd 9206 7fbc 9f22 af3d
00000110: b1cb a03c 0e8e 0bbd 28da bc3c fc7a 183d
00000120: 9eb8 f7bb 1208 303d c3c9 fcbc 8f2f 3e3d
00000130: 5c29 8ebd 8560 11bd 3bbb 093d 3a22 6a3d
00000140: 7ded 8e3d 9327 913a fae2 833d 6208 c3bb
00000150: 177e 603c 813e 85bd 97c0 a33c 891a da3c
00000160: a89d 033d 085f 653b 3b3a 3a3d df77 a63c
00000170: 5ec3 a73d 53e6 823d 44d1 ac3a 002a 1d3b
00000180: b515 eebb e88e 2abd 1440 403d db0f 4bbb
00000190: 77fb 6dbd f963 5e3d 84ce 9bbc 6197 163d
000001a0: e191 073d 45ad a23d f70f 83bd cc65 10bd
000001b0: 08a1 0d3d ab8f 9e3a 2bef 78bd b2bd 09bd
000001c0: fd14 353d 595a 813c 3b52 1f3c 9adc 9abd
000001d0: 0f8a 2e3c a71c 193d 8e6a 44bc bb17 9bbd
000001e0: 2812 a23d cf53 9fbd 515b 89bd 275c a3bb
000001f0: e104 ff3b 2368 89bd 7720 03bd 4ea4 9fbd
00000200: 3360 7dbd 811f 123c 2f6d 4e3d b4f5 c13c
00000210: cdc3 993d 02ad 2f3d 9a43 753d dfec a6bb
00000220: 5b27 2ebd 8b1d 1abc 56d9 0d3d c0b6 8dbd
00000230: d431 22bd f02e 083b 4d23 a7bd 8585 c53c
00000240: 3f8a 19bd e045 373d 4abc 193d e3a8 03bd
00000250: d05d 43bd 66a2 78bd 6619 3f3c feb1 733d
00000260: 1f5d 99bd 930e 70bc b59c 76bd b609 cc3c
00000270: 4712 e7bc 3a6e 42bd 3228 2dbd a27a 5f3d
-0.08094027 0.057224378 -0.07829098 0.04939191 0.03699735 -0.017164506 -0.042670056 0.052421287
-0.04832727 -0.0047029513 0.066764094 0.022397127 -0.01647279 0.07181202 -0.033331517 -0.070111096
0.044531025 0.032109637 0.07044073 0.0069420356 0.032484613 0.0316784 -0.030402513 0.07674585
0.068390734 0.060073543 0.06081428 -0.04486932 0.070564315 -0.07422843 -0.052357238 0.011614364
-0.007064374 0.017530309 -0.07615472 -0.028034661 -0.060336985 0.03172386 0.014664122 -0.046388008
0.01277433 0.011372474 0.047822185 0.03719047 -0.048855636 -0.049309365 0.04574398 0.049125254
0.06866347 -0.037503865 -0.061080188 -0.056939587 -0.009677297 0.017755805 0.019341119 0.06887413
0.020629078 0.08534072 -0.05921256 0.024225334 0.05950828 -0.0111496085 0.049763195 -0.06353172
-0.017273331 -0.066008754 -0.015565531 0.08551525 0.019628378 -0.03407102 0.023053244 0.037226662
-0.00755985 0.042976446 -0.030857926 0.046432074 -0.069414824 -0.03549244 0.033625823 0.057161547
0.06978891 0.0011074416 0.06439777 -0.005951927 0.013701937 -0.06506062 0.019989295 0.026623981
0.032132775 0.003499927 0.04546569 0.02032083 0.0819156 0.06391587 0.0013184925 0.0023981333
-0.0072657713 -0.041640192 0.04693611 -0.0030984792 -0.058101144 0.05429456 -0.019019373 0.03676546
0.033098105 0.07943205 -0.063995294 -0.03525333 0.0345774 0.001209726 -0.060774963 -0.033628173
0.04420947 0.015790151 0.009724195 -0.07561608 0.010653033 0.03738084 -0.011988295 -0.075728856
0.07913619 -0.07779657 -0.0670687 -0.0049853506 0.007782564 -0.06709316 -0.032013383 -0.077950105
-0.06185932 0.008918644 0.050397094 0.02367673 0.07508049 0.042889602 0.059878923 -0.005094155
-0.042518 -0.009406458 0.034631096 -0.069196224 -0.0395983 0.002077993 -0.0816103 0.024111519
-0.037485357 0.044744372 0.037533082 -0.032143485 -0.04769689 -0.06070175 0.01166377 0.05949592
-0.074884646 -0.014651912 -0.06020804 0.024906974 -0.028206958 -0.0474684 -0.04227466 0.05456031

_bins.0._pooling_modules._pooling_module._inception_modules.0._inception_sub_modules.0._conv_list.2.weight f4 [1, 32, 1, 2]
00000000: 7147 ffbd 3c1b d33d 045b be3d 8b42 c63d
00000010: 7f66 8dbd 55de fabd 7913 06bd 905d 513d
00000020: 9fe5 e8bd 2e42 fcbb 5bed e03c cdb8 b6bd
00000030: b984 a2bd d2b8 4f3d 95bd eb3d 47aa dbbd
00000040: 447c 10bc a01f ca3d 3bf8 7bbc 9504 363a
00000050: 7d64 813d 4837 c0bd 4953 76bb f6d6 9e3d
00000060: 1f45 df3d aab6 cabd 76be 8bbd d2d7 58bd
00000070: 2800 143c 5b33 d53d 7b02 a83d e52a 02bd
00000080: a19f 09bd 1566 bc3d cd8e d73d 5148 a8bd
00000090: 0170 603c 6bdd 2ebd 19e1 8dbc 96a1 783d
000000a0: 40d0 6aba 9ef1 943d bdaa 26bd 5fd2 c4bd
000000b0: 4f3b 27bd cd1a 75bb 02e1 cdbd 9ad0 cf3d
000000c0: 5654 c43d 46d3 fb3d 9caf b6bd 6428 06bd
000000d0: 6bf7 aabd 6a81 a2bd 5393 be3c d34d 9e3d
000000e0: 68e2 1cbb 367d e5bd 7a16 e03b 81bd 813d
000000f0: 4f1b aabd 22f1 f43b 460a 06b9 b495 e43d
-0.12464798 0.10307929 0.092947036 0.09680661 -0.06904315 -0.12249438 -0.032733414 0.05111462
-0.11371922 -0.007698319 0.02745693 -0.08921967 -0.07935471 0.050713368 0.11510769 -0.10725837
-0.00881869 0.09869313 -0.015379007 0.0006943432 0.06317995 -0.09385544 -0.0037586263 0.07755844
0.10901856 -0.09898122 -0.06823437 -0.052940197 0.00903324 0.10410186 0.08203598 -0.03177919
-0.0335995 0.09199158 0.10525284 -0.08216918 0.013698579 -0.04269163 -0.017319249 0.060700975
-0.0008957423 0.07272647 -0.040690172 -0.096104376 -0.040828045 -0.0037400008 -0.100526825 0.101472095
0.09586398 0.122961566 -0.089202136 -0.032753363 -0.083479725 -0.0793484 0.023263609 0.077296875
-0.002393866 -0.11205523 0.006838617 0.06334973 -0.0830599 0.0074750343 -0.00012783063 0.11161366

_bins.0._pooling_modules._pooling_module._inception_modules.0._inception_sub_modules.0._batch_norm.weight f4 [4]
00000000: 761a 813f 3c96 803f 99ff 7f3f c995 7f3f
1.00862 1.0045848 0.99999386 0.9983793

_bins.0._pooling_modules._pooling_module._inception_modules.0._inception_sub_modules.0._batch_norm.bias f4 [4]
00000000: 5c8b 5a3a 1e92 d8b9 e6df 19ba 56c9 dabb
0.0008336806 -0.00041307596 -0.000586985 -0.006676833

_bins.0._pooling_modules._pooling_module._inception_modules.0._inception_sub_modules.0._batch_norm.running_mean f4 [4]
00000000: 7423 1f3e c0ca 543d bb33 5abd 867d 29be
0.15540868 0.05195117 -0.05327199 -0.1655179

_bins.0._pooling_modules._pooling_module._inception_modules.0._inception_sub_modules.0._batch_norm.running_var f4 [4]
00000000: c33a 0a3e 55d6 093e c902 0b3e be3d fd3d
0.13498978 0.13460667 0.13575281 0.12365292

_bins.0._pooling_modules._pooling_module._inception_modules.1._inception_sub_modules.0._input_conv.weight f4 [32, 1, 1, 1]
00000000: 4673 673f 7f1b 54be 86e1 4b3f 64c9 86be
00000010: 12db 013f 08f2 4a3f 1ae6 77bf dd19 b2be
00000020: 081b 293f 6403 0fbf 10a4 adbe b28d 243f
00000030: 1661 62bd 2547 da3e a8c9 6d3c bbf9 7abf
00000040: 9259 f1be e209 523f d882 34bf 7f2b 4cbe
00000050: b07e 283f b601 4b3f 8106 34bf c172 aa3c
00000060: 8be1 8dbe db4a 8f3e 15d6 233f 7802 403f
00000070: fb45 a5be 8726 48bf 3e60 7e3f 59d4 733f
0.9041027 -0.20713614 0.79640996 -0.26325524 0.507249 0.7927556 -0.9683548 -0.34785357
0.6605687 -0.5586455 -0.33914232 0.6427871 -0.05526837 0.42632404 0.014513411 -0.9803731
-0.4713865 0.8204633 -0.7051215 -0.19938467 0.6581831 0.79299486 -0.70322424 0.020806672
-0.27711138 0.27986798 0.6399854 0.75003767 -0.32279953 -0.7818379 0.99365604 0.9524589

_bins.0._pooling_modules._pooling_module._inception_modules.1._inception_sub_modules.0._conv_list.0.weight f4 [1, 32, 1, 10]
00000000: 5eb0 b43c 5f38 be3c b19a edbc 03b3 5ebd
00000010: be32 053d 02a2 d4bc 7f5c ebbc 7a70 393d
00000020: 991a 593d 6623 223b f2f1 84bc 330d 993b
00000030: eafa f93c fc85 34bd 1e5b dd3c a57f 183c
00000040: cb18 803b fc52 94ba 6135 a2bb d2da 9d3b
00000050: c49a f53c 22d1 94bc 7c90 0fbc 5c06 ff3c
00000060: 420c 1e3d bafe 663b 31f4 51bc c0b3 523b
00000070: 98ce 483c e6a7 ff3c 1ec2 cabc 8d7a 40bc
00000080: d433 48bd d87d 683d ae0a 563c ea0f 133c
00000090: f7df 4c3d 1974 013b ebd0 283d 8f1b 213d
000000a0: 721d 273d 93d6 60bd 57fb 303d 20af ee3a
000000b0: c5f8 db3a 76ad 163d d893 203c 548b 313d
000000c0: 037f 2cbc a242 cbbc fddd 06bd c568 40bd
000000d0: 4a6e 3c3d 4563 e23c a2ed 65bc 970e 27bd
000000e0: ef83 63bd 22db 243d cdf8 dfbc 31aa 313d
000000f0: e2be ca3c 1000 273c f8a5 c7b9 6a60 203d
00000100: 345a 1ebb 2173 363d ed5d bc3c 5940 ee3c
00000110: 0b9c 513d 8b47 e8ba dc62 27bd dd2e bb3c
00000120: 6b90 10bd 1f62 373d 8905 273d d620 60bc
00000130: 8215 3ebd 95b2 c8bb 6a6e 003d cde2 323c
00000140: 09c6 a53c 97fb d1bc ea26 493d b49c 19bd
00000150: be07 193d d871 c2bc d4d2 5cbb 7a7c 88bc
00000160: 265b 4bb9 cb68 c63c 8ca3 08bd 9571 41bd
00000170: 571b 5abc 6400 fc3b 9525 203d 6593 35bd
00000180: 9706 6e3d 0da0 033b 2cf1 01bd 3bbd 39bd
00000190: 627a 99bc f5c2 223c f069 bebc 7f9c 56bd
000001a0: f254 5e3d 4018 31bd 0e21 25bd 764e d1bc
000001b0: 31a4 3f3d 8189 a6bc bd1e 32bc e122 a63c
000001c0: b2c0 603c 5e4f 123c abe1 223d e071 593c
000001d0: 99aa 80bc 99d7 773c 57be 493d e488 52bd
000001e0: 6081 29bd 4cdf ae3c 2f04 31bb e3b3 82bb
000001f0: 0b7d 153c c023 32bd 38aa f1b9 aa40 60bd
00000200: 7524 cbbc 7464 153d 0a5d da3c bc15 723c
00000210: b9c3 503c eff7 e23c 89ee dcbc 8d5d 0ebd
00000220: 5648 1f3c 942f 2f3d 68c3 39bd 7329 573d
00000230: 0cdf 653d bda3 16bc 3406 5abc b1f1 1abc
00000240: 4064 2f3d 783f 463d 5120 183d fa1b 523d
00000250: 8eea 623d dcd5 ffbc c7ee 5d3d 745b d5bc
00000260: 3d78 c93b d05a 93bc 136d 7cbc f614 183d
00000270: c726 14bd 36ad a0bc de2a 293c ee02 ed3c
00000280: 9b46 a9bc c2dd 1bbd 6aad f93c 8bd5 95bc
00000290: 1fe2 523d 8e75 dd3c 76dc 06bc d78a 20bd
000002a0: 7b3f 0e3d 0d29 82bc 7f28 52bd 5b43 1d3d
000002b0: e859 33bd 3f1d 5bbd ba9b 303d 58e3 3fbd
000002c0: 63aa f6bc 7403 083c a757 afbc 0fb5 54bd
000002d0: c177 febc 8f03 41bc e151 053c 1058 b23c
000002e0: 2ebc 62bd e812 1ebc e8fa e0bc be4e 6a3c
000002f0: 95d3 1b3d 09c7 5ebd 19f2 97bb 4960 f8bb
00000300: 6864 213d bd5a 32bd 26bb 443d 1b96 653a
00000310: 2602 483d 376f 58bd b348 4b3c 85a8 1bbb
00000320: d1b1 43bc e1a2 48bd 9cca d0bb d43d 27bc
00000330: 7608 cf3b 3446 21bd 446d 2cbd 64b9 3a3d
00000340: cfd6 25bd 2c8e 03bc 6001 bb3c e389 2ebd
00000350: f55a 73bc 9c04 8fba 201e 47bd 34fc a83c
00000360: 3d47 f1bb eec2 1a3d b678 103d 495f 123d
00000370: c31c dd3c 55b2 143d 3e2a c53b f0d3 5c3b
00000380: c176 45bd 0135 4c3c 4eab c73c 614f 003d
00000390: ba09 2f3c 6651 5b3c ece6 683d a8c7 44bd
000003a0: 29b7 1dbd 572d 23bd ff0b 4ebd 5bef 203d
000003b0: 736b 153d 6b45 0dbd 453c 673d cc1a 763b
000003c0: 69cc a9bb 6379 42bd 65ba 023c c7c0 56bd
000003d0: 9e4d 3f3d aa11 10bc 036a 283d bc56 78bd
000003e0: 8736 5abd 615d fe3b deed 073d ccb3 1ebd
000003f0: 803a 3a3d 1884 41bd 3951 c1bc ea45 493d
0.022056755 0.02322024 -0.029004427 -0.054369938 0.032519095 -0.025956158 -0.028730629 0.04527328
0.05300388 0.0024740337 -0.01622865 0.004670763 0.030515153 -0.04407309 0.027020987 0.009307777
0.0039092056 -0.0011316235 -0.004950211 0.004817345 0.029981025 -0.018166129 -0.008762475 0.031130962
0.03858591 0.0035247044 -0.012814567 0.0032150596 0.012256287 0.03120799 -0.024750765 -0.011747968
-0.048877552 0.05676064 0.01306407 0.008975962 0.050018277 0.0019753037 0.041214865 0.039332923
0.040799566 -0.054892134 0.043208446 0.001821015 0.0016782513 0.03678652 0.009800874 0.043345764
-0.010528329 -0.024812046 -0.03292655 -0.046974916 0.046003617 0.027635226 -0.014033707 -0.0407854
-0.055545744 0.040248044 -0.027340317 0.043375198 0.024749223 0.010192886 -0.00038079894 0.039154448
-0.0024162652 0.04454339 0.022994006 0.029083418 0.051174205 -0.0017721517 -0.040865764 0.022849495
-0.035293978 0.04477131 0.040776763 -0.013679704 -0.04640723 -0.0061248043 0.0313553 0.010918331
0.020236032 -0.025632663 0.049109377 -0.03750296 0.0373609 -0.023735926 -0.0033695 -0.016660918
-0.00019393544 0.024219891 -0.033359095 -0.04722746 -0.013312182 0.0076904763 0.03909834 -0.04433002
0.058111753 0.0020084411 -0.03172414 -0.04534648 -0.018735114 0.009934177 -0.023243874 -0.05239534
0.05428023 -0.043236017 -0.040314727 -0.025550108 0.046787445 -0.020329239 -0.010871586 0.020280303
0.013717817 0.008930055 0.039765995 0.013271779 -0.015706347 0.015127086 0.049253788 -0.05140008
-0.041383147 0.02134671 -0.002701055 -0.0039887293 0.009124051 -0.043491125 -0.00046093925 -0.05474917
-0.024797658 0.036472753 0.026655693 0.01477569 0.012741976 0.027706115 -0.026969211 -0.034757186
0.009721836 0.042769983 -0.04535237 0.052529763 0.056120917 -0.009194312 -0.013307143 -0.009457038
0.042820215 0.048400372 0.037140194 0.05129621 0.05539947 -0.031229906 0.054182794 -0.026044585
0.0061483667 -0.017987639 -0.015406865 0.037129365 -0.036169793 -0.019613843 0.010325162 0.028932061
-0.02066355 -0.03805328 0.030478198 -0.018290302 0.051485177 0.027033594 -0.008231273 -0.039194908
0.03472851 -0.015888715 -0.05130815 0.038394313 -0.043786913 -0.053494688 0.043117262 -0.04684767
-0.030110544 0.008301605 -0.0214041 -0.051930483 -0.031062962 -0.011780634 0.008137197 0.021770507
-0.055355243 -0.009648062 -0.027463391 0.014301 0.038043577 -0.054389033 -0.0046370146 -0.0075798375
0.039402395 -0.043543566 0.04803004 0.0008758024 0.048830174 -0.052840438 0.01240747 -0.0023751569
-0.01194425 -0.04898346 -0.006371809 -0.010207612 0.0063181473 -0.03937359 -0.04209639 0.04558696
-0.04048806 -0.008029502 0.022827804 -0.042611968 -0.014853229 -0.0010911408 -0.048612714 0.020628072
-0.0073632286 0.037783556 0.03527137 0.035735402 0.026991254 0.036302883 0.0060169986 0.003369566
-0.048208956 0.012463809 0.024373677 0.0313257 0.010683471 0.013386106 0.05686085 -0.04804197
-0.038504753 -0.03983816 -0.05030441 0.039290767 0.036479425 -0.03449003 0.056453962 0.0037552593
-0.0051818383 -0.047479045 0.00797901 -0.05242994 0.04670488 -0.008793274 0.041116726 -0.06062959
-0.053274658 0.0077625965 0.033185832 -0.038745686 0.045465946 -0.047245115 -0.0235983 0.04913894

_bins.0._pooling_modules._pooling_module._inception_modules.1._inception_sub_modules.0._conv_list.1.weight f4 [1, 32, 1, 5]
00000000: 5062 1a37 5795 053d ebb6 023c 6387 25bd
00000010: d6d7 99bd 882a 1f3d 62ae 0d3d c380 b2bc
00000020: 9ad9 4fbd ea67 84bd b143 5c3d 4404 06bc
00000030: 1014 aebb 51f1 57bd 0c49 f1bc d191 cb3c
00000040: bda7 533d 2d98 6c3d d8c8 c5bc d401 c9bc
00000050: 1d1b f839 ad76 5bbd 2a61 9e3a 454f 133d
00000060: 954f 96bc 2533 7a3d 79c9 013d 30c5 f3bc
00000070: 56ff 603c 22cf 2e3d 5d2c c8bc bd14 563c
00000080: 7a4d 983d e119 81bd 6418 a53d 3cca 4e3d
00000090: 3ecf 733d 8707 793c 2cb2 21bb ec03 05bd
000000a0: 305e a53d 213a 69bb 33ec 20bb f1e1 f83b
000000b0: a187 8abc 054e 3c3c 2c44 3d3d 67a1 90bd
000000c0: 65f0 07bd 0157 e6bc 7e4d 8ebc 51ef e73b
000000d0: 3f72 b2bc 519b 403d 1711 773d 1b1a a13d
000000e0: d6fe 12bc bd48 fe3c b7f8 203b fcb7 0a3c
000000f0: f6c8 96bd 0e15 abbc 770d 1dbd 4aed e23c
00000100: c58f 863d aeda 983c edef 53bd 8735 06bd
00000110: 91db 7b3d 9db9 99bd 9641 5cbd 5ba8 98ba
00000120: a758 b23c a1ed 033c b5cd 08bd 3788 34bd
00000130: 53b1 35bd 9f0f 85bd df0d 3cbc 1e01 bb3c
00000140: 4477 7b3d c36d 803d 7531 74bd f94d a13c
00000150: 7a0d dfbc 1ae2 e43c 0fda a6ba cac9 483d
00000160: a2ac 853d e42e febb 2038 113d e857 3b3d
00000170: c0df debb e29e bdbc b0d2 6f3d f25e 5cbd
00000180: 555c 54bd 2749 743d b764 6f3d 5b2c 8bbd
00000190: 9603 c03c f016 2bbd 0c4e ac3c bd7f 663d
000001a0: 3248 85bd 0862 673d 6abc 32bd d2ec 41bc
000001b0: b2d2 043b 3552 4ebd 9acb 07bc dab4 5bbd
000001c0: 96f1 af3b 14d0 85bd 546f 013d acb5 adbc
000001d0: f949 76bc e02b 713d e394 04bd 57e1 05bc
000001e0: d76a a4bc e878 8e3d 602d a9bb 822a 613d
000001f0: 3418 4bbc 4dce fbbc 8248 853d 0abc 08bd
00000200: 770f 033c c7f3 803d 33ad 7b3d 4838 823c
00000210: 8992 9f3d 27d1 c83c f028 3dbd 95df e5bb
00000220: ec23 d4bc a8ea a43d 10dd 353d b4b0 6f3d
00000230: bf7b 74bc 7fc7 1ebb 399d 9abd 6ac1 6d3c
00000240: a11f a43d 56f2 d53b 4215 22bd 386e 5abd
00000250: 4642 a23d 0755 84bc 3362 823d d3b3 d3bc
00000260: 200a 6bbc 8af4 363d 4186 043b d1f2 72bd
00000270: 3644 993d b523 fd3b d0b0 c63c 1df0 e8bc
9.2020055e-06 0.032613125 0.007978181 -0.040412318 -0.075118706 0.03885892 0.034590133 -0.021789914
-0.05074463 -0.064651325 0.053775493 -0.008179728 -0.00531245 -0.05272037 -0.029453777 0.024849804
0.05167364 0.057762314 -0.024143621 -0.024537005 0.00047322447 -0.053579975 0.00120834 0.03596427
-0.018348495 0.06108393 0.03168628 -0.029757112 0.013732752 0.042678006 -0.024435217 0.013066468
0.074366525 -0.06303764 0.08061293 0.050485834 0.059523813 0.015199549 -0.002467285 -0.032474443
0.080746055 -0.0035587626 -0.0024554848 0.0075952937 -0.016910376 0.011493211 0.046207592 -0.07062035
-0.033188242 -0.028117659 -0.017370936 0.0070780893 -0.021782992 0.04702312 0.060319033 0.07866307
-0.00897189 0.031040544 0.0024562308 0.008466717 -0.07362549 -0.020884063 -0.03834292 0.027701039
0.065703906 0.018658962 -0.051742483 -0.03276589 0.06148869 -0.07506106 -0.053773485 -0.0011646854
0.021770788 0.008052261 -0.033399303 -0.044075217 -0.044358563 -0.0649712 -0.0114779165 0.022827681
0.061393037 0.062709354 -0.05961748 0.0196905 -0.027228106 0.027939845 -0.0012729781 0.049020566
0.06527068 -0.0077570546 0.035453916 0.04573813 -0.0068015754 -0.02314705 0.058550537 -0.053801484
-0.051845867 0.059640076 0.05844566 -0.067955695 0.02343921 -0.04176992 0.02103331 0.056274164
-0.06507911 0.056489974 -0.043636717 -0.0118362475 0.0020267186 -0.050371367 -0.0082882885 -0.05363927
0.0053693755 -0.065338284 0.03160031 -0.021204792 -0.015032285 0.058879733 -0.032368552 -0.008171401
-0.020070476 0.06956655 -0.00516288 0.05497218 -0.012395907 -0.03073802 0.065079704 -0.033382453
0.007999293 0.06296497 0.061444473 0.015895978 0.07791621 0.024513794 -0.04618162 -0.0070151784
-0.025896035 0.0805257 0.044400275 0.058518127 -0.0149220815 -0.0024227796 -0.07549519 0.014511446
0.08013845 0.006529133 -0.039571054 -0.05332777 0.07922797 -0.016153825 0.06366386 -0.025842583
-0.014345676 0.044666804 0.0020221623 -0.0593136 0.07483713 0.007725204 0.024254233 -0.028434807

_bins.0._pooling_modules._pooling_module._inception_modules.1._inception_sub_modules.0._conv_list.2.weight f4 [1, 32, 1, 2]
00000000: fc34 903c eab5 afbc 574e 04bd ac67 c2bd
00000010: cdb3 9cbd 79b4 29bd 7126 8bbd 1158 873d
00000020: be94 73bd f161 993d cfae bdbd 4329 a53d
00000030: a42e 9e3d f860 983c d95f a5bd 2b35 983d
00000040: da82 1d3d 8e0d 8d3d 67a3 14bd e873 b23d
00000050: ec2a fa3d f5d0 77bd cde9 0ebd 2f77 f93d
00000060: 3793 403d 9f45 0abd c035 f9bd 56fd 853d
00000070: 148f f5bd 78db 7a3d 2804 d43d 548f ed3c
00000080: 0eea 93bd 6ed3 c3bd bc82 003d e8d9 023e
00000090: cb7a 133d b55f 743d 969d fd3d f960 84bd
000000a0: 8275 e9bd 5a99 8dbc b27a 953d 7faf aa3d
000000b0: a90e b6bd f941 e2bd 5420 cfbb 32db 9fbd
000000c0: 8cbe 5bbc 0f9e 8abd d34f a33d a11b 5b3c
000000d0: 3c9a 263d 0c9d 433c a615 0d3d 97bb ab3c
000000e0: 94dc 50bd 04bb 53bd 7b98 b73c 1130 ffbd
000000f0: 70a1 e73d c043 003e 12f5 c93d 8dfe 743d
0.01760339 -0.021449048 -0.032301273 -0.0949243 -0.07651482 -0.041431878 -0.067944415 0.06608594
-0.059468023 0.07489384 -0.09261858 0.08064511 0.0772374 0.018600926 -0.08074922 0.07432016
0.038454868 0.06887351 -0.036288645 0.087135136 0.12215218 -0.06050201 -0.03489094 0.121809356
0.047015395 -0.033757802 -0.12168455 0.065424606 -0.119901806 0.061244458 0.10352355 0.028999008
-0.07222377 -0.095618114 0.031374678 0.12778437 0.036005776 0.059661586 0.12383573 -0.064638086
-0.11399366 -0.017285038 0.07298793 0.083342545 -0.08889515 -0.110477395 -0.0063209925 -0.0780548
-0.013412129 -0.067684285 0.0797421 0.013373286 0.040674433 0.011939298 0.034444474 0.020963473
-0.05099161 -0.051692024 0.022411576 -0.1246034 0.11310089 0.12525845 0.098611966 0.05981307

_bins.0._pooling_modules._pooling_module._inception_modules.1._inception_sub_modules.0._batch_norm.weight f4 [4]
00000000: df05 813f b0e0 7f3f 3efc 7f3f e19a 7e3f
1.0079917 0.9995222 0.99994266 0.99455076

_bins.0._pooling_modules._pooling_module._inception_modules.1._inception_sub_modules.0._batch_norm.bias f4 [4]
00000000: 70c8 183c 50af 903b e7c4 753a 6da9 cebb
0.009325132 0.00441543 0.0009375349 -0.006306818

_bins.0._pooling_modules._pooling_module._inception_modules.1._inception_sub_modules.0._batch_norm.running_mean f4 [4]
00000000: caee 5bbe ec26 603e 20f4 943e d986 543e
-0.2147781 0.21889848 0.29092503 0.20754565

_bins.0._pooling_modules._pooling_module._inception_modules.1._inception_sub_modules.0._batch_norm.running_var f4 [4]
00000000: 2e18 093e 3021 133e 01f5 1b3e 90b1 ff3d
0.1338813 0.14368129 0.1523018 0.12485039

_bins.0._pooling_modules._pooling_module._inception_modules.2._inception_sub_modules.0._input_conv.weight f4 [32, 1, 1, 1]
00000000: 1247 bc3d 6c13 783f cbef 42bf 364b 683f
00000010: 3467 4cbf 5661 9bbe 67ea a93e 42c0 79bb
00000020: 2cdf 22be d577 693f cc9e 093f 0fcd 223c
00000030: 1fd5 6ebf df7b 2a3f 3a6a 893d 5242 62bf
00000040: f27a 0b3f 6455 f4be 22b0 ecbe 4600 ccbe
00000050: 7a19 42bf f13a 463e 52b0 2abe f870 e0be
00000060: d336 b8bd 73a9 ecbe 4af7 57be 84b5 03bf
00000070: 4597 3ebf 44d6 0d3f 575c c5be 5686 69bf
0.09193243 0.96904635 -0.76147145 0.9073976 -0.79844975 -0.303477 0.33186647 -0.003810898
-0.15905446 0.91198474 0.5375793 0.009936585 -0.93293947 0.6659526 0.06709714 -0.88382447
0.54484475 -0.47721398 -0.4622813 -0.3984396 -0.75820124 0.19358422 -0.16668823 -0.43836188
-0.08994832 -0.4622303 -0.21090427 -0.51448846 -0.7444957 0.5540507 -0.38547012 -0.91220605

_bins.0._pooling_modules._pooling_module._inception_modules.2._inception_sub_modules.0._conv_list.0.weight f4 [1, 32, 1, 10]
00000000: 8133 fa3b 1fd4 00bc ab8c 83bb a044 703d
00000010: 5a18 34bd dabf 793c a485 ae3c 14a6 403d
00000020: 00ca ddbc 0365 6ebd 2fb9 15bd 3635 6ebc
00000030: 1a0a 56bc 9c0a eb3b feec adbc 775e ffbc
00000040: 978d 033d afdd 3ebd abc8 c0bc 23ab cd3b
00000050: 6744 13bd 71fb 863c 417a cd3c 252d 4b3c
00000060: df66 21bd c7ad 05bd 7da4 bc3c ba5f f0bc
00000070: 82f3 ff3c dbe2 03bd d213 37bd 91c3 af3c
00000080: 0cf6 023c d556 bd3c 9de4 2c3d 0e9a 95bc
00000090: 3041 e6bc fb38 67bd 05a4 463a eaec acbc
000000a0: 1da0 d5bc 3208 ca3c 9194 43bb ab33 c6bc
000000b0: 0539 053d a549 2dbd 12ac 5c3d 9581 6b3d
000000c0: 333b 3d3d 69ba 203d 8740 e23a 8daa 4c3d
000000d0: 21ce c2bc 29fa 243d 8b04 943c 476b 303d
000000e0: b812 e3ba 59fa 1c3d 37e6 36bc eec2 00bd
000000f0: a46d f0bc 2ebb d23c 0227 883c e49d ee39
00000100: 8365 423d eb5b 443d 02e3 55bb 0808 da3c
00000110: 156c 803d 62d7 47bd 9e48 0fbd 845f f0b8
00000120: 4c0e f7bc bf53 84bb e890 e73b d911 443d
00000130: 7942 593d 85b6 403d 78b7 033d d1df c6bc
00000140: 0cde 57bd 98cb c2ba 2170 e73c 31dd fdbc
00000150: 734d 96bc 8fae 05bd 6a1b 30bd 74ac a33c
00000160: 3885 50bd 147e 2ebc afe7 e3bc 60e9 193c
00000170: c8fd 3aba 0065 3f3c 653f 1dbd 05bd 043b
00000180: 0933 4cbd 924d 5dbc a81c 613d ef2c 413d
00000190: e362 813d 7dd6 c4bc a3e8 cc3c 2993 3f39
000001a0: 5c3b 08bd 27b2 103c 6b16 193c 8988 46bd
000001b0: a548 213d 9f0d fa3c d2f2 f03c 8ba3 c63c
000001c0: f1b1 353c 9f31 3bbc 904e 623d d5c4 30bd
000001d0: 4422 763c 322c 3c3d 8002 00bd 1eef 54bc
000001e0: 27c6 203b bf54 05bd 2d3e f1bc c5f4 50bd
000001f0: ef82 313c 4424 6c3c e5a2 41bd c81f 5bbc
00000200: 7f68 4fbc b379 6e3d 47f1 283d bbfe 1e3d
00000210: 86c1 45bd 5a6f 99bc ab92 05bd 1de2 0c3d
00000220: 8b94 083d 0ad3 0b3d cda9 123d cf2d 1a3d
00000230: 77da ad3c 2dcb 6cbc 23a2 c5bc f7a7 1fbb
00000240: 67a6 8abb a3f2 703c 5680 b03c e83a e13c
00000250: c658 ccb9 f3d0 d33b e543 033d f65c d33a
00000260: 17e2 3f3d dbce fdbc c1d8 da3c f39c d0bc
00000270: e6d5 a5bb e8e8 b1bc c448 6abd dd46 42bd
00000280: 4b37 95bc 66ff b93c e019 d1bc 4fbb 103d
00000290: 48e5 583d 687e 7abc 5b49 adbc 7ab8 4a3c
000002a0: a549 1d3d 4ffb 68bd 82ff 4abc bb5d 243c
000002b0: 78c7 043d 6540 263d bb8b 99bc d145 01bb
000002c0: 491f 753d 8731 3c3d fed7 b1bc b0b1 b83c
000002d0: 729d b13c 9629 30bd f65a 4c3d af38 383c
000002e0: 2276 29bd 955b 233d b1ad 3dbd 673f 94bb
000002f0: e741 4bbd 5575 0e3d ba3f 373c 77e3 98bc
00000300: f8ff 35bd ec46 58bd 7a1a 5bbd 7552 503d
00000310: 1a68 c83c 35c5 45bc 280f 4bbd d5bb cb3c
00000320: 678d 2bbd 3dbb 5e3d f3eb 01bd 5810 d4bc
00000330: 65f6 bb3b a2d0 483d b465 dcbc 0410 c9bc
00000340: 25eb 14bc 07ef 9e3c ad6a 67bc ffd5 c93c
00000350: 9501 34bd 783b 243d e13d 03bd aca4 54bd
00000360: d426 54bc 005a 6c3c 11d8 2d3d 32a2 2ebd
00000370: ad49 86bb df80 423c 0670 683b 90fd cd3c
00000380: d0c7 093c f7b0 92bc b0a3 40bd 266d a13c
00000390: 45a2 05bd 1e5b 2b3d d552 4a3c 633f 39bd
000003a0: c7c5 103d 76df 53bd e7d4 6dbc ef3a 0b3c
000003b0: a263 713d 52db 4b3d 38fa 3f3d 3a5c 363d
000003c0: 5633 713c d685 a1bc 5512 5d3d 6603 21bd
000003d0: cee9 073d 8d68 1dbd 99e9 35bc 5483 43bd
000003e0: 79ab 903c ba2c 413d 3fd2 233d 40f0 153d
000003f0: 7f51 d3bc 4346 c43c 96e9 56bc 08dd 00bc
0.0076355343 -0.007863074 -0.0040145717 0.058659196 -0.043968536 0.015243495 0.02130396 0.047033384
-0.02707386 -0.0582018 -0.036553558 -0.014539054 -0.013063932 0.0071728956 -0.02123117 -0.031172974
0.032117452 -0.046598133 -0.023533186 0.0062765046 -0.035953905 0.016477318 0.02508271 0.0124009
-0.039404746 -0.03263643 0.023027653 -0.029342521 0.031244043 -0.032198768 -0.044696636 0.021455558
0.007993232 0.023112694 0.04221021 -0.018261936 -0.028107256 -0.056450825 0.00075775414 -0.021109063
-0.026077325 0.024662111 -0.002984319 -0.02419456 0.03252508 -0.04230656 0.053875037 0.057496626
0.046199035 0.039240275 0.0017261662 0.049967337 -0.02377993 0.040277634 0.018068573 0.043071058
-0.0017324304 0.038324688 -0.011163286 -0.0314359 -0.029349156 0.02572402 0.016620163 0.00045512535
0.04746009 0.047939222 -0.0032636528 0.026615158 0.06270615 -0.04878939 -0.034981363 -0.00011461883
-0.030158184 -0.0040383036 0.0070668347 0.047868583 0.05304191 0.047049064 0.03215739 -0.024276646
-0.052701995 -0.0014861701 0.02825171 -0.030989261 -0.018347478 -0.032637175 -0.042994894 0.019979693
-0.050908297 -0.010650177 -0.027820436 0.00939402 -0.0007133153 0.011681795 -0.038390536 0.0020254266
-0.04985336 -0.013507264 0.05495897 0.047161993 0.06317689 -0.024028057 0.025013274 0.00018270001
-0.033259735 0.008831537 0.009343724 -0.048470054 0.03937592 0.030524073 0.02941266 0.024247905
0.011089788 -0.011425405 0.055250704 -0.043156464 0.015022818 0.045940585 -0.031252384 -0.012996463
0.002453217 -0.032551523 -0.029448593 -0.05101468 0.01083444 0.014412943 -0.04727449 -0.013374276
-0.012659191 0.05822153 0.041245725 0.03881715 -0.04828026 -0.018729854 -0.032610577 0.034395326
0.033344787 0.03413681 0.035806466 0.037641343 0.021222336 -0.014452738 -0.024125164 -0.002436159
-0.0042312625 0.014706287 0.02154557 0.027493909 -0.00038976053 0.0064641177 0.03204717 0.0016125727
0.046846475 -0.030982425 0.026714684 -0.025465464 -0.005060899 -0.021717504 -0.0571983 -0.04743086
-0.018214842 0.022704791 -0.025525033 0.03533488 0.052953035 -0.015288927 -0.021153143 0.012373084
0.03840031 -0.05688029 -0.012390019 0.010032113 0.03241679 0.040588755 -0.018743386 -0.0019725452
0.05984429 0.04594567 -0.021709438 0.022545666 0.021681521 -0.04300841 0.049891435 0.011243983
-0.041372426 0.03988226 -0.046308223 -0.0045241597 -0.049623396 0.034779865 0.011184627 -0.018663151
-0.044433564 -0.05280201 -0.053492047 0.050859887 0.024463702 -0.012070944 -0.049575 0.024869839
-0.0418829 0.054377783 -0.03171916 -0.0258867 0.0057361596 0.049027093 -0.026903965 -0.02454377
-0.009089266 0.019401086 -0.014124555 0.024638174 -0.04394682 0.040095776 -0.032041434 -0.051914856
-0.0129487105 0.014425755 0.042442385 -0.04263515 -0.0040981383 0.011871546 0.0035467162 0.025145322
0.008409455 -0.017906649 -0.047031105 0.019705366 -0.032625455 0.041834943 0.01234885 -0.045226466
0.035344865 -0.05172678 -0.014516092 0.008497938 0.058932908 0.049769707 0.046869487 0.044521548
0.014721712 -0.019717138 0.05397256 -0.03930988 0.033181958 -0.038429786 -0.011103057 -0.047732666
0.01765989 0.047161795 0.03999543 0.036606073 -0.025795696 0.023959285 -0.013117215 -0.007865198

_bins.0._pooling_modules._pooling_module._inception_modules.2._inception_sub_modules.0._conv_list.1.weight f4 [1, 32, 1, 5]
00000000: d265 013d 4131 c63c e315 833d 4527 42bd
00000010: 9379 5d3c b03f 813d 323a 8439 da6e 51bd
00000020: 400e b73c 8ebb 763d 156c 793c 354a 74bd
00000030: 86d1 7fbd 77c6 18bd b817 46bd d3e4 443d
00000040: ccde 7fbd 7f1e 1a3d 0847 7bbd 63ff 87bd
00000050: b433 233d 4b66 253d 448d 503d 924a 8ebd
00000060: d44d 933d b018 5d3d de53 aabd 5223 403d
00000070: 3a52 d6bc d5a0 d1bc acb7 373d 2d46 93bc
00000080: 0ef7 103d 59b7 203d fa7e 66bd 7bc8 9f3d
00000090: 7c82 f3bb a667 353d 9e0f f2bc b521 31bd
000000a0: 1b3d 863b 6dc8 6d3d 848b ecbc 48b0 5a3d
000000b0: 3126 773b 60c4 2f3c 0d66 643d db9f 1a3d
000000c0: e2ae 513c 830b 06bd ee57 803d b6d8 8d3d
000000d0: 8a30 47bd 0491 173c 862e df3c df06 a2bb
000000e0: 518e 9b3d 69ed 673d 52cd 3abd 27e9 6c3d
000000f0: 8bcf 873d e4c0 89bb 2166 2f3d 877b 383d
00000100: eece bd3c 5bfc 8dbd 6b91 903d 3c01 983c
00000110: 7768 9b3c 97f2 28bd b2d7 4f3d 16f7 81bd
00000120: 9af9 d8bc 2dcf 903d 8877 1ebd 83c6 ab3c
00000130: 5752 6f3d 0a58 3ebd a9f7 273d c88e 863d
00000140: ae7a 8cbc 2444 8c3d 51b1 983d 6d0e 863d
00000150: fd5e d0bb c8b9 463d f752 51bd 3c51 953c
00000160: 113e 08bd 4125 89bd ea8d 093d 80bb 39bd
00000170: 841c 64bd 6dd4 a6bc 4c88 913d 890a 993b
00000180: 4a0c 8d3d df20 b2bc 2a3d 13bd d145 cebc
00000190: 6736 ef3c d7eb d8bc d6af 563d 4ded 66bd
000001a0: 271d 40bd 56e9 43bc 717b 223b d096 9e3d
000001b0: 1509 88bd aa0c cb3c d00f c03c 4ea3 67bd
000001c0: 3b44 96bd 6be0 8ebd af99 323d f2f9 233c
000001d0: e8f9 81bd 1a5d 72bd acf2 1bbd 293f 763d
000001e0: 275b 75bd 73cf a3bd 086b 2a3d b76b 923d
000001f0: 2bc2 79bc 525b bb3b b2da fa3c f771 903d
00000200: c6ae 09bd 686d 42bd 7d49 013d 13ee 843d
00000210: 7dba 803d 8790 1dbd 5905 8f3b 29fa f03b
00000220: 86a9 8f3c 7932 7d3d 9ac6 393d 94de fabc
00000230: c0cf 7f3d 1377 013d eaa3 8e3c aa0b da3c
00000240: fb21 0fbc 53cc 3e3d c054 e9bb 2823 86bd
00000250: 4516 72bd 6ec6 5c3d d9aa 09bd f56d fd3a
00000260: 1fb5 b13c 2585 793d 448a 093d 6aad 3d3d
00000270: 6858 d8bc e5a0 9dbd 052c a43c 460f 6a3d
0.031591244 0.024193408 0.06400659 -0.04740073 0.013517755 0.063109756 0.0002522036 -0.051131107
0.022345662 0.06023746 0.015223523 -0.05964108 -0.062455676 -0.037298646 -0.048362464 0.048069786
-0.062468335 0.03762674 -0.061347038 -0.06640508 0.03984423 0.040380757 0.05091597 -0.06947817
0.07192579 0.053978622 -0.08316778 0.046908684 -0.026162256 -0.025589386 0.044852898 -0.017977798
0.03539186 0.039237354 -0.056273438 0.078019105 -0.0074313264 0.0442883 -0.029548462 -0.043245036
0.00409664 0.05805247 -0.02887512 0.05339077 0.0037711973 0.010727972 0.055761386 0.037750106
0.012798043 -0.032725822 0.06266771 0.069261 -0.048630275 0.009250883 0.027243864 -0.0049446668
0.07595504 0.056622896 -0.045605965 0.05783954 0.066313826 -0.0042039026 0.042822007 0.04503968
0.02316996 -0.069328986 0.07058986 0.018555276 0.018970711 -0.041246977 0.050742812 -0.06345956
-0.026486207 0.07070766 -0.038688213 0.020968681 0.058428135 -0.04647068 0.04100767 0.06570202
-0.017148342 0.06848934 0.074556954 0.0654572 -0.0063589797 0.04851702 -0.051104512 0.018227212
-0.033262316 -0.06696559 0.033582605 -0.04534483 -0.055691257 -0.020364964 0.07106075 0.0046704453
0.068871096 -0.02174419 -0.035947002 -0.025179775 0.029200746 -0.026479645 0.052413784 -0.05637865
-0.0469028 -0.011957487 0.0024792815 0.07743609 -0.06642357 0.024786312 0.02344504 -0.056552224
-0.07337233 -0.06976398 0.043603595 0.010008322 -0.06346494 -0.05917082 -0.038073227 0.060118828
-0.059901383 -0.07998552 0.04160598 0.07149451 -0.015244047 0.0057176733 0.03062186 0.07052987
-0.033613943 -0.04746762 0.031564225 0.064907216 0.0628557 -0.03846791 0.004364651 0.00735404
0.01753689 0.061815713 0.045355417 -0.030623712 0.062453985 0.0316077 0.017412145 0.02661689
-0.008736129 0.046581578 -0.0071206987 -0.06549674 -0.05910327 0.053900175 -0.0336102 0.0019335138
0.02169281 0.060917992 0.033579126 0.04630796 -0.026409343 -0.07696704 0.020040521 0.057143472

_bins.0._pooling_modules._pooling_module._inception_modules.2._inception_sub_modules.0._conv_list.2.weight f4 [1, 32, 1, 2]
00000000: bf31 d73d fe59 553d acfe c73d 50d8 763d
00000010: 85a8 a4bc ce0b 573d 1c8a 4d3d b56e 08bd
00000020: dd8a 903d 6e62 ae3d 5057 ed3d 5da0 80bd
00000030: b3ae d43d 49c6 b63c 5179 933d 579e 45bc
00000040: 5eda a33d 46e1 483b 62bf 9b3c 35fa 64bc
00000050: c9ac f73d 3650 f33d 19aa bcbd 95fe f33c
00000060: ce10 f33d 9b53 f93c 5122 063c df8f c3bd
00000070: d207 c13c f807 953d f665 b63d 2ad6 a63d
00000080: 3ce4 15bc 617b 16bc 997a 913d 7abf 47bd
00000090: 4ef4 f63c a66e d13c b2ba 753d 7ce5 e53d
000000a0: 6754 b23d 4f00 e83d a7c5 bebd 0e7a 623d
000000b0: 1d8b eebd d4c4 82bc 9a02 01be c5aa a53d
000000c0: c145 abbd 56d3 483c 97e1 a93d c18b d3bd
000000d0: 22de de3d b858 cfbd 61cd 333d 3c50 90bd
000000e0: 2093 a7bd 4a14 f3bd 5bac 88bd d4d7 f1bc
000000f0: 1f4e 91bc 331f d2bd 5ba0 c43d 60a9 033e
0.10507535 0.052087776 0.09765372 0.060264885 -0.020099888 0.052501492 0.05018054 -0.033308703
0.07057736 0.08514868 0.11588919 -0.06280587 0.10384884 0.022311347 0.07200874 -0.012061677
0.080006346 0.0030651852 0.019012157 -0.01397567 0.12093503 0.118805334 -0.09212131 0.02978448
0.118684396 0.030435374 0.008186893 -0.095489256 0.0235633 0.072769105 0.08906166 0.08146317
-0.009148654 -0.009184689 0.07103462 -0.04876659 0.03014579 0.025565457 0.0599925 0.11225411
0.08707505 0.11328184 -0.09315043 0.05529218 -0.116476275 -0.015962996 -0.12598649 0.08089212
-0.08362914 0.012257418 0.08294981 -0.1032939 0.10882212 -0.10124344 0.043897036 -0.070465535
-0.08182359 -0.11869104 -0.06673499 -0.02952186 -0.017737446 -0.10259857 0.09600898 0.1285758

_bins.0._pooling_modules._pooling_module._inception_modules.2._inception_sub_modules.0._batch_norm.weight f4 [4]
00000000: 27cf 803f e1e3 803f 2078 803f 6cd0 7e3f
1.0063218 1.0069543 1.0036659 0.99536777

_bins.0._pooling_modules._pooling_module._inception_modules.2._inception_sub_modules.0._batch_norm.bias f4 [4]
00000000: cd85 fdba f972 c6bb c0e0 3b3b 1ad4 893a
-0.0019342244 -0.0060561863 0.0028667897 0.0010515482

_bins.0._pooling_modules._pooling_module._inception_modules.2._inception_sub_modules.0._batch_norm.running_mean f4 [4]
00000000: ccc3 0cbe 51d4 4bbd 49a2 3fbe b15f 643e
-0.13746566 -0.049763028 -0.1871425 0.22302128

_bins.0._pooling_modules._pooling_module._inception_modules.2._inception_sub_modules.0._batch_norm.running_var f4 [4]
00000000: b136 053e b551 003e 9e68 033e 965f 003e
0.13009144 0.12531169 0.12832877 0.12536463

_bins.0._pooling_modules._pooling_module._inception_modules.3._inception_sub_modules.0._input_conv.weight f4 [32, 1, 1, 1]
00000000: 2dbe 793f 318d 793f d6b9 703f 86d9 4c3f
00000010: 41d4 44be e7b3 4fbf c21f bd3e 7637 4dbf
00000020: 2825 393f 017d 4dbf dd87 9e3e 84df 063f
00000030: a10a 17bf 5a0e 0abf 7d4a 1c3f e19a 4c3e
00000040: 6f90 d13e 59c7 a83e 1af3 59bf 5a87 e33e
00000050: 02e9 00be 3a80 b33c d3f8 6dbe eb80 d3bd
00000060: 5328 45bf d8dd 1fbf 2783 4d3f e7c9 0cbd
00000070: 5e7a 223e 87e1 78bf 9719 07bf b8f9 79bf
0.9755581 0.97481066 0.94033563 0.80019414 -0.19221593 -0.81133884 0.36938292 -0.8016275
0.7232232 -0.80268866 0.3096303 0.5268481 -0.59000593 -0.5392815 0.6105116 0.19980957
0.40930507 0.3296459 -0.8513657 0.44439203 -0.12588885 0.02191173 -0.2323945 -0.103273235
-0.77014655 -0.6244788 0.8027825 -0.034372237 0.15866992 -0.9721913 -0.5277342 -0.97646666

_bins.0._pooling_modules._pooling_module._inception_modules.3._inception_sub_modules.0._conv_list.0.weight f4 [1, 32, 1, 10]
00000000: f9d7 1d3d 8e2f 2cbd b666 6fbd 1e7e 2a3d
00000010: 486e e1bc d1c4 1fbd 259c 65bc 3904 ef3c
00000020: 38f2 1f3d 8828 16bc 8b8e 8f3c 435b afbb
00000030: 35c9 2b3b 921c 45bd fadf 193d 5d78 20bd
00000040: 16c5 35bd d30a 373d d110 42bd efbc a1b9
00000050: 33de 0d3c 6267 a13c 95ab 02bd b2f3 13bd
00000060: 475c 133d b917 fd3c e1dd ba3c 620f c6bb
00000070: e492 5bbd 0ee3 253d 25ac dcbc 1eb8 21bd
00000080: daaa 41bd 0c27 20bd 4202 cb3b f4af c3bc
00000090: 8f76 2bbd a3c1 18bd 1072 c0bc 6245 5d3c
000000a0: 0cfd ed3b 9210 68bc 0474 bdbc cf0d 8fbc
000000b0: df4b d73c f929 b4bc 0656 0fbd f21a 4b3d
000000c0: f936 3b3d d741 1d3b 710d 64bc 63af b4bc
000000d0: 44c6 05bd 67e5 79bc cd4e 1e3d 14e1 a53c
000000e0: d4f7 65bc 0ae7 23bd cb2f 57bc 14e5 c6bc
000000f0: 3586 9b3c 2f14 ffbb 40ea 673c ee0a 493d
00000100: c419 efbb 861d e6bb 26ee 4cbd b9e6 a33c
00000110: 617a 673d 0d0c 733b ae42 2e3d 1c92 813d
00000120: 4c4e 30bd e1e9 59bd c0cc bc3c 7975 753d
00000130: 9f85 4c3d 36e0 f4bc 36f9 7f3c 7048 063d
00000140: fc48 4cbd f349 cdbc d931 afbc ed0a b1bc
00000150: f62b b03c 228e 29bd c3da ac3c 2c17 0f3d
00000160: 24a8 9bbc 12d2 de3c 36c1 56bd 4883 623d
00000170: 00c8 ebbc 492b 5ebc a690 2fbd b29e 783d
00000180: 482c 643d a276 003c cba3 23bd 110a 4cbd
00000190: a080 84bc 9b7b 2bbc c48a 5abd 93fe 29bd
000001a0: def9 533c e351 2fbd 5caa 143c 7222 943c
000001b0: 8946 ffbc 4bbf 3ebd 7c5b 4e3d a2d8 68ba
000001c0: 74fd 113d 894d 513d b433 0c3d 9f64 54bd
000001d0: 3f07 e03c e463 2c3d 18f4 8c3c 7674 cb3b
000001e0: 47c2 383d f324 02bd f601 06bd f46c e23c
000001f0: 92a5 2abd 2896 00bd 7980 7bbb f703 7fba
00000200: 203c 61bd 42f1 c53c 8d5e fc3c 1ee1 333c
00000210: 52c2 163d 36e9 3abc ba88 b13a 71e7 6c3d
00000220: eff9 afbc b64b 83bc 8852 f7bc 0d3b 8abc
00000230: d754 56bc cc3e abbc 4b9b 55bd dbfa bb3c
00000240: b4c8 303d 3b0f f23c 47d9 3c3d d5da e43c
00000250: d7a6 43bd 4e14 f6bc 282f 3a3c fe07 39bc
00000260: b96c 343c df25 2d3d b3ff 4c3c d7b8 dfbc
00000270: fb10 193d a1a1 a7bb c5e6 6a3d 5319 4a3d
00000280: b7df 4a3d 0956 333d 6b5c fe3c 6a60 8b3c
00000290: 32c3 3a3d e094 79bd eadf 503d d35c 00bd
000002a0: 5285 7c3c a7ce 63bd 78e3 53bc de4d 2f3d
000002b0: ec3c 05bd b2e9 173d 6c82 27bd a23f 4bbd
000002c0: d9bf 7f3c f28d cbba a241 beb7 296b 41bc
000002d0: d17f ee3a 6418 6a3d dcda 8b3b 1d02 52bd
000002e0: c4ed a03c 8c0d 46bd 0ccc 123d 0a7e f9bc
000002f0: 8234 b13c c364 45bd dd42 0abd 95d0 c6bc
00000300: 44e3 4dbd 707e aabc 55ec e1bc 9460 47bd
00000310: f2b7 383d 854c 0ebd fdf3 4d3d 0750 fcbc
00000320: 8068 44bd 09be 59bc ebd6 7bbc 3dca 423d
00000330: 5d59 ee3c 60f6 583d 3122 2ebc d1f9 433d
00000340: 1933 c2bc 9238 0abd ed9c fd3c db0b 40bd
00000350: 4949 38bd 6097 1f3d 9eaf 01bd 223d 9d3c
00000360: ee9d febc f7f2 113b af10 e6bc cd44 bf39
00000370: 1f9f 1e3d 9126 c63c d9b1 8abb 4c98 943c
00000380: d662 513c 1658 6b3c 82ac 54bc e649 613d
00000390: 02f3 963b 5649 b4bc 1e47 69bd f0ac 47bc
000003a0: 9969 afbb ef5d 103d 09fe f23c 375e 483d
000003b0: 4810 513d d602 743d 5631 16bd e391 563d
000003c0: 1d9b 19bd a5e9 bebc 2df1 84bc 254a 9cbc
000003d0: e705 04bc 0959 933c 4681 56bd f9ce 2ebd
000003e0: 45ab 65bc ca05 e93c 2b3a bdbc 8bc7 06bd
000003f0: 447b 1e3d 3a03 8dbb 866e 24bd cc2c 683c
0.038536046 -0.04203754 -0.058447562 0.04162418 -0.027518407 -0.039006058 -0.014014279 0.029176818
0.039049357 -0.009164937 0.017524024 -0.0053514554 0.0026212458 -0.04812295 0.037567116 -0.039177287
-0.04437741 0.044688057 -0.04737932 -0.0003084908 0.008658933 0.019702617 -0.031901915 -0.036121078
0.035976674 0.0308951 0.022810878 -0.0060443142 -0.053606883 0.04049974 -0.026937554 -0.03948223
-0.047282077 -0.039099738 0.0061953375 -0.023887612 -0.041861113 -0.03729404 -0.02349189 0.013505312
0.0072628316 -0.014164107 -0.02312661 -0.01746264 0.026281295 -0.02199267 -0.034994148 0.049586244
0.045706723 0.0023995542 -0.01391922 -0.022056287 -0.032659784 -0.015252448 0.03864937 0.020248927
-0.014036138 -0.040015258 -0.013133953 -0.024279155 0.018984893 -0.0077843885 0.014154971 0.04908269
-0.0072967727 -0.0070225624 -0.050031804 0.020007478 0.056513194 0.003708604 0.04254406 0.06326696
-0.04304342 -0.05320156 0.023046851 0.059926484 0.04993212 -0.029892068 0.015623381 0.032783926
-0.04987429 -0.025059676 -0.021386074 -0.021611655 0.021505337 -0.041395314 0.021100407 0.034934208
-0.019001074 0.027199779 -0.052430354 0.05530098 -0.02878189 -0.013560125 -0.042862557 0.06069822
0.055706292 0.007840784 -0.039951127 -0.049814288 -0.016174614 -0.010466482 -0.053354993 -0.041502547
0.012937991 -0.042802703 0.00907382 0.018082831 -0.031161563 -0.04656915 0.050380215 -0.00088823785
0.035642102 0.051099334 0.034228995 -0.051853772 0.027347205 0.04208745 0.017206237 0.0062089516
0.045107152 -0.03177352 -0.032716714 0.027639844 -0.041661806 -0.0313932 -0.0038376136 -0.0009728069
-0.05498898 0.024162892 0.030806804 0.010978965 0.036806412 -0.011408141 0.0013544776 0.057837907
-0.021481482 -0.016027313 -0.030190721 -0.01687386 -0.013081751 -0.020903967 -0.052150052 0.022946766
0.043160155 0.029548278 0.04610565 0.027936378 -0.047766533 -0.030038979 0.011363782 -0.011293409
0.01101225 0.042272445 0.012512135 -0.027309818 0.03736971 -0.005115703 0.057348985 0.049340557
0.049529757 0.04378322 0.031049928 0.017013747 0.04559631 -0.060932994 0.05099479 -0.031338524
0.015412645 -0.055617 -0.012932651 0.04279887 -0.032528803 0.037088104 -0.040895864 -0.04962123
0.015609705 -0.0015529974 -2.2680328e-05 -0.011805334 0.0018196051 0.057152167 0.0042680334 -0.051271547
0.019644625 -0.048352763 0.035839126 -0.030455608 0.021631483 -0.048191797 -0.033755172 -0.024269382
-0.050265566 -0.020812243 -0.027578512 -0.04867609 0.0450973 -0.034740943 0.050281513 -0.030799879
-0.04795122 -0.013289937 -0.015371065 0.04755615 0.029095346 0.052969337 -0.010628269 0.047845665
-0.023706006 -0.033745356 0.030958617 -0.046886306 -0.044991765 0.03896272 -0.031661622 0.01919419
-0.031081166 0.0022270062 -0.028084127 0.0003648162 0.03872597 0.024188312 -0.004232627 0.018139027
0.012779912 0.014364263 -0.012980582 0.055002116 0.0046066055 -0.022007626 -0.05695259 -0.012187228
-0.0053531644 0.035245832 0.029662149 0.048917975 0.051040918 0.059573017 -0.036668144 0.052385222
-0.037501443 -0.02330477 -0.016228283 -0.019078324 -0.008058048 0.017986791 -0.05236938 -0.042677853
-0.014017885 0.028445143 -0.023099026 -0.032905143 0.038691774 -0.004303363 -0.040144466 0.014170837
